01_pure_bend/CPU/net_v_20240628_191828.pth (torch, 6223 bytes, 7 tensors)

layers.0.weight f4 [20, 2]
0	0x3fa8f0ba	1.3198464
1	0x3f768724	0.9629996
2	0xbf1d9808	-0.61560106
3	0x3e92e629	0.28691223
4	0xbf876db6	-1.0580356
5	0x3eeee8c6	0.46661967
6	0x3f7a4a69	0.9776979
7	0xbdf439fa	-0.11925121
8	0x3f95248d	1.165178
9	0x3f795993	0.97402304
10	0xbf9ccbab	-1.2249655
11	0xbeac9fef	-0.3371577
12	0x4025826f	2.586086
13	0xc0209dab	-2.5096233
14	0x3f2fd004	0.6867678
15	0x3f5965d0	0.8492098
16	0x4018ce40	2.3875885
17	0xc01109c3	-2.2662208
18	0x3e844c30	0.25839376
19	0x3fa12472	1.2589247
20	0xc00d5fbb	-2.208968
21	0x3f05f842	0.52331936
22	0xbffdb438	-1.9820623
23	0xbf96a102	-1.1767886
24	0x3f8053ef	1.0025615
25	0x3ebce4b2	0.3689323
26	0x3e980c64	0.29696953
27	0xbeedbcef	-0.46433207
28	0xbf960d61	-1.1722833
29	0x3f7064a4	0.93903565
30	0xbea79664	-0.32731926
31	0xbf800aea	-1.0003331
32	0x3fc949f7	1.5725697
33	0x3ffefa67	1.9920167
34	0x401f53f3	2.4894989
35	0x3f462fad	0.774165
36	0xbda37d76	-0.07982914
37	0xbef370e1	-0.47547057
38	0xbd763aed	-0.06011479
39	0xbf668992	-0.90053666

layers.0.bias f4 [20]
0	0x3f546b3e	0.8297614
1	0x3e9100cd	0.28320923
2	0x3f5b486d	0.8565739
3	0xbe9e0c48	-0.30868745
4	0xbe992e9f	-0.29918382
5	0x3f1b8916	0.6075605
6	0x3efa5b2c	0.48897684
7	0x3e582283	0.21106915
8	0x3f45196a	0.76991904
9	0xbf25c2f2	-0.6475059
10	0x3edecb16	0.43514317
11	0xbf1fd910	-0.62440586
12	0x3cd691a6	0.026192497
13	0xbde3cc97	-0.11123007
14	0x3ea6290a	0.32453185
15	0x3f0a84bf	0.54108804
16	0x3f57782f	0.8416776
17	0xbf5f9ee7	-0.8735184
18	0x3f151af3	0.58244246
19	0xbd54925f	-0.051897403

layers.1.weight f4 [20, 20]
0	0xbe8950b6	-0.2681939
1	0x3ea989ce	0.3311295
2	0x3f475dcc	0.778775
3	0xbe8686e4	-0.26274788
4	0xbf81aed6	-1.0131481
5	0x3eb93384	0.36172116
6	0xbc8d27e5	-0.017230937
7	0xbe5bc89e	-0.21463248
8	0x3ca96597	0.020678325
9	0xbeccba9a	-0.39986116
10	0x3f090b96	0.53533304
11	0xbeaceb4d	-0.3377327
12	0x3c6388db	0.013887609
13	0x3e8779bf	0.26460072
14	0xbe19a868	-0.15005648
15	0xbeebd00e	-0.4605717
16	0xbe08ce27	-0.13359891
17	0x3e6e5547	0.23274718
18	0xbe089d19	-0.13341178
19	0x3e0d49a0	0.13797617
20	0xbe1b51d5	-0.15167935
21	0x3cd8d508	0.026468769
22	0x3ec63f5f	0.38720223
23	0xbf160661	-0.58603483
24	0xbe82b02b	-0.2552503
25	0x3dda4540	0.1065774
26	0x3f20e273	0.62845534
27	0x3dac7e22	0.084224954
28	0x3ebaafc6	0.3646223
29	0xbdf3b734	-0.119001776
30	0x3ebaf248	0.3651297
31	0x3ef0ce3a	0.47032338
32	0xbe34b1a0	-0.17645884
33	0x3bc6908d	0.0060597123
34	0xbcb276e1	-0.021785202
35	0x3e456a46	0.19278821
36	0x3e08782e	0.13327095
37	0xbe33c891	-0.17556979
38	0x3dc25bd5	0.09490172
39	0x3e8c5908	0.27411675
40	0x3eff2971	0.49836305
41	0xbdbc1ce3	-0.09185197
42	0xbd53b9ed	-0.051690985
43	0xbeb84b40	-0.3599491
44	0xbea70a7c	-0.32625186
45	0x3e539954	0.20663959
46	0x3e05e342	0.13074973
47	0xbec00710	-0.37505388
48	0xbeba0d2f	-0.36338183
49	0xbe683758	-0.22677362
50	0x3f1e08a3	0.6173193
51	0x3cbfb866	0.023403358
52	0x3e33ef57	0.1757177
53	0x3e1fad37	0.1559342
54	0x3ec829f0	0.39094496
55	0xbe69b273	-0.22821979
56	0xbcb3b2e0	-0.02193588
57	0x3dc4f1df	0.09616446
58	0xbe5225a8	-0.20522177
59	0xbebc8696	-0.3682143
60	0xbc1cd4de	-0.009572236
61	0xbe2db0ae	-0.16961929
62	0x3e4d2f0f	0.20037483
63	0xbd2ddac8	-0.042444974
64	0x3f7bdd37	0.9838442
65	0x3c1020cd	0.008796883
66	0x3ec4486d	0.38336506
67	0x3eaa3951	0.33246854
68	0xbf291bec	-0.6605823
69	0xbec85127	-0.39124414
70	0x3ee3c4cb	0.4448608
71	0xbf786058	-0.9702201
72	0xbd1fa5d0	-0.03897649
73	0x3e62f45a	0.22163525
74	0xbee6520f	-0.4498448
75	0x3dddde51	0.10833419
76	0xbf094476	-0.5362009
77	0x3e262549	0.1622516
78	0x3f6c915d	0.92409307
79	0xbde3b077	-0.111176424
80	0x3eea762f	0.45793292
81	0x3e52380e	0.20529196
82	0x3f097044	0.5368693
83	0x3de075b3	0.10959949
84	0xbe68f999	-0.22751464
85	0xbe47ee1a	-0.19524422
86	0x3c92275f	0.01784104
87	0x3e954704	0.29155743
88	0x3eac100e	0.33606
89	0x3efd8740	0.4951725
90	0x3ec0315a	0.37537652
91	0x3c154597	0.00911083
92	0xbf537dd6	-0.82613885
93	0x3ea7df72	0.32787663
94	0xbd2a70cd	-0.04161148
95	0x3e8cfada	0.27535135
96	0xbdcc76a4	-0.099835664
97	0x3f35da84	0.71036553
98	0x3f96195c	1.1726489
99	0xbdc24122	-0.09485079
100	0x3de1b550	0.11020911
101	0xbec2aaea	-0.38021022
102	0x3c52f450	0.012875631
103	0xbedae74e	-0.42754596
104	0xbe1d78fc	-0.15378183
105	0x3e5bb807	0.2145692
106	0x3e167e27	0.14696561
107	0x3e1903ae	0.1494281
108	0xbe193d34	-0.14964753
109	0x3f033264	0.51248765
110	0x3e8d94e7	0.27652666
111	0xbe87559b	-0.264325
112	0xbe99fe35	-0.30076757
113	0x3e0cafb0	0.13738894
114	0xbd9f8a5c	-0.07790062
115	0xbd2d3d16	-0.042294584
116	0x3e4eeae6	0.20206794
117	0x3f2316be	0.63706577
118	0x3ed547e7	0.4165642
119	0x3e19bc09	0.15013136
120	0x3e60ddb0	0.21959567
121	0x3d9183cf	0.071052186
122	0xbdb91888	-0.09037882
123	0x3dfe320a	0.12411888
124	0xbf010319	-0.5039535
125	0x3e8843a6	0.26614112
126	0x3d12b5b3	0.035817813
127	0x3ee6f1b5	0.45106283
128	0x3dbf2ee7	0.09335118
129	0xbde8d930	-0.1136955
130	0x3e42160c	0.18953723
131	0xbec88bc4	-0.39169133
132	0x3e7f2008	0.24914563
133	0x3ce49417	0.027902646
134	0x3ee90ead	0.4551901
135	0xbe34d800	-0.17660522
136	0xbddf7164	-0.109102994
137	0xbeb7c473	-0.35892066
138	0x3d8813db	0.06644412
139	0x3e9b8a26	0.30378836
140	0x3e0f7001	0.1400757
141	0xbeecd6c1	-0.46257594
142	0xbdd03bce	-0.10167657
143	0x3eb459b4	0.35224688
144	0xbf289d90	-0.6586542
145	0xbecdd295	-0.40199724
146	0xbe5418e5	-0.20712622
147	0x3e84243a	0.2580889
148	0x3ed7b17c	0.42127597
149	0x3f1f2f6e	0.62181747
150	0x3ebe2c4b	0.37143168
151	0xbf130285	-0.5742572
152	0xbd929b37	-0.07158511
153	0xbda22b8f	-0.079184644
154	0x3e19d598	0.15022886
155	0x3d27b880	0.040947437
156	0x3d7e383c	0.062065348
157	0xbe317c55	-0.17332585
158	0x3e030e9c	0.12798542
159	0x3f32a238	0.69778776
160	0x3f18c09d	0.59668905
161	0xbdffbb85	-0.124869384
162	0xbed25414	-0.41079772
163	0xbf47c594	-0.78035855
164	0x3af07e40	0.0018348172
165	0xbcdb1a3f	-0.026745914
166	0x3e156b70	0.14591765
167	0xbf0fc588	-0.56160784
168	0xbcca22f9	-0.02467488
169	0xbf1a3db7	-0.6025042
170	0x3edd5775	0.43230787
171	0x3e234d15	0.15947373
172	0xbea30b2a	-0.31844455
173	0x3e0da922	0.1383405
174	0x3eb0b8af	0.34515902
175	0xbe849891	-0.2589765
176	0x3e103b1a	0.14085045
177	0x3eb13ede	0.34618276
178	0x3e4d5445	0.20051678
179	0x3eee0de8	0.46494985
180	0x3eac016c	0.33594835
181	0x3dda99da	0.10673876
182	0xbeaab88e	-0.3334393
183	0x3b7c87e9	0.0038533157
184	0x3ef5357b	0.47892365
185	0xbf4c7043	-0.798588
186	0x3e0d5c17	0.1380466
187	0x3ce7571a	0.028239775
188	0x3e69615e	0.22791049
189	0xbf40735a	-0.7517601
190	0xbee8defc	-0.45482624
191	0xbe003d75	-0.12523444
192	0x3dbdb7d1	0.09263576
193	0x3d231e7b	0.03982399
194	0x3ec4bcfd	0.38425437
195	0x3ca3b7d6	0.01998512
196	0xbf997e5a	-1.1991684
197	0x3e2795b1	0.16365696
198	0x3e994da4	0.29942048
199	0xbe9d805f	-0.30762002
200	0x3f6300b6	0.8867296
201	0xbde1d058	-0.110260665
202	0x3f343d87	0.70406383
203	0x3e1e4cb6	0.1545895
204	0xbcbd1549	-0.023081439
205	0x3d34c539	0.0441334
206	0xbe4cc5ae	-0.19997284
207	0x3e2b5896	0.16733012
208	0xbdee16a7	-0.11625414
209	0xbd8bb7a9	-0.0682214
210	0x3b591a8d	0.0033127398
211	0x3e5f7fe8	0.21826136
212	0xbd82c8c7	-0.063859515
213	0x3e8fe831	0.28106835
214	0x3e3cd1ab	0.18439357
215	0xbeaafb73	-0.33394966
216	0x3d9339a3	0.07188728
217	0xbdf82aa2	-0.121175066
218	0x3e35b59a	0.17745057
219	0xbe2bcb2b	-0.16776721
220	0x3ebbc7f7	0.36676
221	0xbf1bb37b	-0.6082074
222	0x3eae057f	0.33988568
223	0x3e8f5012	0.27990776
224	0x3da75dbd	0.08172176
225	0x3ec283d9	0.37991217
226	0xbe36d7e0	-0.17855787
227	0xbf3aba87	-0.7294087
228	0x3f2f4c03	0.6847536
229	0xbda596d6	-0.0808541
230	0x3cf10de6	0.029425573
231	0xbe698429	-0.22804321
232	0xbe71dff3	-0.23620586
233	0xbe882b4d	-0.26595536
234	0x3eb6b560	0.35685253
235	0x3ecd6000	0.40112305
236	0xbe588e52	-0.21148041
237	0x3f0186ee	0.5059651
238	0xbead891e	-0.33893675
239	0xbf4946b3	-0.78623503
240	0xbe752be3	-0.23942523
241	0x3e63711e	0.2221112
242	0x3e8d3e25	0.27586475
243	0xbf09ab0a	-0.5377661
244	0xbdfaf882	-0.1225443
245	0x3eaa02ae	0.3320517
246	0x3e495b41	0.19663717
247	0xbe8ff8e7	-0.28119585
248	0x3ebea732	0.37236935
249	0xbe1bee72	-0.15227678
250	0x3e964ef8	0.29357123
251	0x3e7073bf	0.23481654
252	0xbe19fa71	-0.15036942
253	0xbf1eb8ef	-0.62000936
254	0x3e6deb46	0.23234281
255	0x3ea15716	0.31511754

layers.1.bias f4 [20]
0	0x3e156d04	0.14592367
1	0x3e73809f	0.23779534
2	0xbe31fea5	-0.17382295
3	0x3e3e0fbc	0.1856069
4	0xbda0788c	-0.078354925
5	0x3e1a7a0b	0.15085618
6	0x3ed29eba	0.41136724
7	0xbc969f77	-0.018386586
8	0x3db86b6f	0.09004866
9	0x3e50d8a8	0.20395148
10	0xbd9a82b9	-0.075444646
11	0x3ea97be5	0.33102337
12	0x3d923317	0.07138651
13	0xbd84eee3	-0.064908765
14	0xbd0417db	-0.032249313
15	0x3d9a952a	0.07547982
16	0x3e0d5242	0.1380091
17	0x3d9fb1a1	0.07797552
18	0x3e266650	0.16249967
19	0x3d5f47b8	0.054511756

layers.2.weight f4 [20, 20]
0	0x3e79237b	0.24329941
1	0x3e98b1fa	0.29823285
2	0xbe9302f5	-0.28713194
3	0xbea03206	-0.31288165
4	0xbf171e8a	-0.59030974
5	0x3efa58b7	0.4889581
6	0xbe997b9d	-0.29977122
7	0x3cdb857a	0.026797045
8	0x3e6498d2	0.22323921
9	0x3ed37539	0.4130037
10	0xbe52aba6	-0.20573291
11	0xbedf40c1	-0.4360409
12	0xbde5cf36	-0.11221163
13	0x3e3a7771	0.18209626
14	0xbe148d4b	-0.14507024
15	0x3e9ac602	0.30229193
16	0x3e88435d	0.26613894
17	0xbeb996ec	-0.36247957
18	0xbede74c2	-0.43448454
19	0x3e59a092	0.21252659
20	0xbdcf4cec	-0.101220936
21	0x3ef6c4c6	0.48197
22	0xbe38639f	-0.18006752
23	0xbe486f83	-0.19573788
24	0xbd61a398	-0.055087656
25	0x3aed98b8	0.0018127179
26	0xbed6bd23	-0.41941175
27	0x3dc01872	0.093796626
28	0xbe549074	-0.2075823
29	0x3f06e443	0.5269205
30	0xbec2b6f2	-0.380302
31	0x3f2f6a8c	0.6852195
32	0x3ec3e0d0	0.38257456
33	0xbe998ed0	-0.2999177
34	0x3debf8ad	0.115220405
35	0x3f54ed4c	0.83174586
36	0xbf285944	-0.6576121
37	0x3e6bf86d	0.23043986
38	0x3dd6e116	0.104921505
39	0xbed2d377	-0.4117696
40	0xbd862690	-0.06550324
41	0xbe4c0687	-0.19924365
42	0xbde853e3	-0.11344125
43	0xbef928ef	-0.48664042
44	0x3eade67c	0.33964908
45	0x3e1ff7ee	0.15621921
46	0xbd38e559	-0.045140598
47	0xbe7595f0	-0.23982978
48	0xbf35f764	-0.71080613
49	0x3b02530a	0.001988592
50	0x3e3baeb5	0.18328364
51	0xbe8f2641	-0.27958873
52	0x3d81e019	0.06341571
53	0x3e9350f9	0.28772715
54	0xbe66e7d6	-0.22549376
55	0xbe01bc16	-0.12669405
56	0x3d8f9027	0.07009917
57	0xbeb4a711	-0.35283712
58	0x3ec8e738	0.39238906
59	0x3ec5312d	0.3851408
60	0xbe8ef8e5	-0.27924266
61	0xbe82a4bf	-0.25516316
62	0xbedb45c8	-0.42826676
63	0xbe0a1f1b	-0.13488428
64	0xbebc6ed3	-0.36803302
65	0x3e51ef71	0.20501496
66	0xbe4918fd	-0.19638439
67	0xbea437df	-0.32073876
68	0xbec5b469	-0.38614205
69	0xbf29e202	-0.66360486
70	0xbefd0b71	-0.49422792
71	0x3df6eb75	0.120566286
72	0x3e810f28	0.25206876
73	0xbed319bc	-0.4123057
74	0x3dcd5e81	0.10027791
75	0xbdf6e5e0	-0.12055564
76	0xbe459557	-0.1929525
77	0xbe7975e3	-0.24361376
78	0x3ea94152	0.33057648
79	0x3ee0ccd5	0.43906274
80	0xbe82d654	-0.25554144
81	0x3d6afa7e	0.057367794
82	0xbdc33116	-0.09530847
83	0x3e53437d	0.20631213
84	0x3eeb99e0	0.46015835
85	0xbec47304	-0.38369
86	0xbe2b7040	-0.16742039
87	0x3e82e63d	0.25566283
88	0x3e4fcaef	0.20292257
89	0x3f1ecf0d	0.62034684
90	0x3e852ee7	0.26012346
91	0x3f0de4e5	0.5542739
92	0xbe6ea667	-0.23305665
93	0xbf1b3199	-0.60622555
94	0x3cbf028b	0.023316642
95	0x3f035673	0.51303786
96	0xbd292141	-0.04129148
97	0xbd337a0b	-0.04381756
98	0xbed789fd	-0.42097464
99	0xbeea55b7	-0.4576852
100	0x3ed2b335	0.4115235
101	0xbda42839	-0.08015484
102	0xbe452e7e	-0.19256017
103	0x3d40aa81	0.047037605
104	0x3ef57d53	0.47947177
105	0x3f16d4ed	0.5891865
106	0xbc273368	-0.010205127
107	0xbea075bf	-0.31339833
108	0x3ddc06fc	0.1074352
109	0xbf467bad	-0.77532464
110	0xbdadfc01	-0.084953316
111	0x3ee1c420	0.44094944
112	0xbe153aed	-0.1457326
113	0x3ee9313e	0.4554538
114	0xbea3937e	-0.31948465
115	0xbe9110c7	-0.28333113
116	0xbdbf42a8	-0.093388855
117	0x3d0f40e4	0.034973994
118	0xbd143caf	-0.036190685
119	0x3f2a5254	0.6653187
120	0xbec5382c	-0.38519418
121	0xbe8b0872	-0.2715488
122	0x3d1e6ec0	0.03867984
123	0xbd932ccd	-0.071862794
124	0xbe3ee869	-0.18643345
125	0xbe0416e2	-0.12899354
126	0xbf308e7f	-0.6896743
127	0x3e88bdb7	0.2670724
128	0xbeb2b10e	-0.34900707
129	0xbeb54843	-0.35406694
130	0x3efad96d	0.48994008
131	0x3eb8affa	0.3607176
132	0x3ed83575	0.42228284
133	0xbd29cc42	-0.04145456
134	0x3eff706c	0.4989046
135	0xbe1c7bf5	-0.15281661
136	0xbee5ad7b	-0.44858918
137	0x3ee66ccd	0.45004883
138	0x3df4c9a9	0.11952526
139	0x3f2193a7	0.63115925
140	0xbe7761a6	-0.24158344
141	0xbf1b7f53	-0.60741156
142	0x3f11c113	0.5693523
143	0xbdcb5099	-0.09927482
144	0xbe6cb341	-0.23115255
145	0xbe3f5819	-0.1868595
146	0x3cbb2104	0.022842892
147	0xbf09e2bd	-0.538616
148	0xbd33f12e	-0.04393118
149	0xbe99d7f0	-0.3004756
150	0x3ea786a5	0.32719913
151	0x3e6cddc1	0.23131467
152	0x3e15502a	0.14581361
153	0x3ebaad26	0.36460227
154	0xbe8dac4b	-0.27670512
155	0x3e7c5125	0.24640329
156	0x3df67992	0.120349064
157	0xbd2dead7	-0.04246029
158	0xbbf92e7b	-0.007604418
159	0x3f03bd48	0.51460695
160	0x3e8ff3d2	0.28115708
161	0xbf5ad2a9	-0.8547769
162	0x3ebaf4b1	0.3651481
163	0x3ee221b1	0.4416633
164	0xbd8cc076	-0.068726465
165	0x3e5669d0	0.20938802
166	0xbeb87937	-0.3602998
167	0x3e05b649	0.13057818
168	0xbea089f9	-0.31355265
169	0x3f8393c3	1.0279468
170	0xbe12739a	-0.14301911
171	0xbd8342b2	-0.064092055
172	0xbdab1a27	-0.083545975
173	0xbefd711c	-0.49500358
174	0xbeb8c364	-0.3608657
175	0x3e342206	0.17591104
176	0x3de335bb	0.11094233
177	0xbcf03b95	-0.029325286
178	0x3f09c341	0.5381356
179	0x3eb1da2d	0.34736767
180	0x3de373ed	0.111060955
181	0xbe40debb	-0.18834965
182	0xbf2c287a	-0.6724926
183	0x3ed12af9	0.40853098
184	0xbe295764	-0.16537243
185	0xbd9692cd	-0.07352219
186	0xbf0f2b58	-0.5592551
187	0x3d6d7f0c	0.05798249
188	0x3f51080a	0.8165289
189	0xbe214903	-0.15750508
190	0x3f12972e	0.5726193
191	0x3ca84483	0.020540481
192	0x3e252332	0.16126707
193	0x3e726478	0.23671138
194	0xbe97a03f	-0.29614446
195	0x3edd18c3	0.43182954
196	0xbe7756f6	-0.24154267
197	0xbe6dd250	-0.23224759
198	0xbf2a53dc	-0.6653421
199	0xbed39f8e	-0.41332668
200	0xbf1e7a94	-0.6190579
201	0xbd644115	-0.05572613
202	0xbe011b21	-0.12608005
203	0xbeee4717	-0.46538612
204	0xbc75e66b	-0.015008549
205	0xbe243da5	-0.1603914
206	0xbf3716cb	-0.71519154
207	0x3f2e6b31	0.6813231
208	0x3ec4aa0e	0.3841099
209	0xbee52fd6	-0.44763058
210	0xbeac4f31	-0.33654168
211	0x3e9d1d1a	0.30686265
212	0xbe20bc5c	-0.15696853
213	0x3e6b17c0	0.22958279
214	0xbeac1c54	-0.33615363
215	0xbe59019a	-0.21192017
216	0x3e2484ae	0.16066238
217	0xbeab579f	-0.33465287
218	0xbe0a966d	-0.13533945
219	0x3dc4516f	0.09585845
220	0xbe77bbb0	-0.24192691
221	0x3dde82ce	0.10864793
222	0xbe1a1dd8	-0.15050447
223	0x3d988d20	0.074487925
224	0x3e130568	0.14357531
225	0x3c7572b6	0.0149809625
226	0x3eae3be6	0.34030074
227	0x3b8b2929	0.00424685
228	0x3ee3e288	0.44508767
229	0xbd8b2bc5	-0.06795458
230	0xbebbe6ac	-0.36699426
231	0x3f0fda9d	0.5619295
232	0x3e6135ce	0.21993181
233	0xbe1b1edd	-0.15148492
234	0xbe6682aa	-0.22510782
235	0x3cc24fc6	0.02371968
236	0xbe716408	-0.23573315
237	0x3d6e5aca	0.058192052
238	0xbee1b036	-0.4407975
239	0xbf043a1d	-0.51651174
240	0xbf173a1a	-0.5907303
241	0xbc717573	-0.014737475
242	0x3f13b204	0.57693505
243	0xbeb30e81	-0.34972003
244	0x3edeabdf	0.43490502
245	0x3d3bca64	0.04584731
246	0xbf34a202	-0.70559704
247	0xbe81eb83	-0.25374994
248	0x3ec2a9c0	0.38020134
249	0x3e814f8b	0.25256
250	0x3ef5a2aa	0.47975665
251	0x3e241a8d	0.16025753
252	0x3e44eee1	0.1923175
253	0xbddec2d1	-0.10877002
254	0x3c417a10	0.011808887
255	0x3f099802	0.5374757

layers.2.bias f4 [20]
0	0xbbef4a05	-0.007302525
1	0x3d9bc528	0.07605964
2	0x3d7f6b9f	0.062358495
3	0xbebec6bb	-0.37260994
4	0x3df4f48c	0.11960706
5	0x3e2348c9	0.15945734
6	0x3dc1892f	0.09449994
7	0xbe2355f2	-0.15950754
8	0xbe7246ad	-0.23659773
9	0xbe0af2bc	-0.13569158
10	0xbe902833	-0.2815567
11	0x3e5081e3	0.20362048
12	0xbb142a47	-0.0022608207
13	0x3d949e6e	0.072567806
14	0xbdb03375	-0.08603565
15	0x3de9f03a	0.11422773
16	0xbe5fae93	-0.21843939
17	0xbdcdc88f	-0.10048019
18	0x3e5d79fd	0.21628566
19	0x3db50426	0.08838682

layers.3.weight f4 [1, 20]
0	0xbdf59b2a	-0.11992486
1	0xbbf55fd8	-0.007488232
2	0xbd1e3847	-0.03862789
3	0x3deae38c	0.11469182
4	0xbc8908d1	-0.016727837
5	0xbd1487e7	-0.03626242
6	0xbd334a74	-0.043772176
7	0x3bb2888b	0.005448406
8	0xbe1ace70	-0.15117812
9	0x3d99a53e	0.075022206
10	0xbdd76d48	-0.105188906
11	0x3e383c08	0.1799165
12	0xbdc26ec0	-0.0949378
13	0x3d501015	0.050796587
14	0x3e249405	0.1607209
15	0x3dbce8ce	0.092240915
16	0xbbcfdfee	-0.006343833
17	0x3c0a238d	0.0084313275
18	0x3c941c55	0.018079916
19	0x3c8d7ad4	0.017270483
