01_pure_bend/CPU/net_u_20240628_191828.pth (torch, 6223 bytes, 7 tensors)

layers.0.weight f4 [20, 2]
00000000: 90b4 96be d530 08c0 fed6 103e 881b c73f
00000010: 84b9 293f ec6e 9fbe e675 74be 6722 1c3f
00000020: abc5 67bf 67ab 09c0 9fe7 293f ac09 c2be
00000030: cabe cbbd af0c f23d edd2 eabe 842a f93e
00000040: 01ab 4cbf d273 56be 1a5d e13e 9fb7 333f
00000050: 0dfc 93bf be1c 4fbf dbef 933f 729f 27bf
00000060: 159e 28bf 1360 1e3f aaf4 95be 4bb9 4fbf
00000070: 0a96 b5bf e679 cf3f 67f7 f6bf 25df 863f
00000080: a284 0a3f 5050 783f ec73 f63e a308 653e
00000090: 9ee8 3f40 7f43 48bf 7981 16be e0aa c9bf
-0.29434633 -2.1279805 0.14144513 1.5555277 0.662987 -0.31139314 -0.238731 0.60989994
-0.9053599 -2.1510866 0.6636905 -0.37898004 -0.099484995 0.118188255 -0.4586405 0.4866525
-0.7994843 -0.2094262 0.44016343 0.7020206 -1.1561295 -0.8090323 1.1557573 -0.6547767
-0.65866214 0.6186535 -0.29288226 -0.8114211 -1.4186413 1.6209075 -1.9294251 1.0536848
0.5410863 0.9699755 0.48135316 0.22366576 2.9985728 -0.7822799 -0.14697827 -1.5755272

layers.0.bias f4 [20]
00000000: f633 16bf 6ef8 0e3f 5adf 1bbf e7ac 153d
00000010: edec a1be 575b 44bf 5b5a 35be 7fa9 0bbf
00000020: 487c bc3d e72c 2b3d 7f85 a03e 4436 a1be
00000030: c779 4abe 85f1 b83d 6f8c 213e cf5c 42bf
00000040: 5c64 42bf ef6f 9a3e 3126 283f eea8 a7bd
-0.58673036 0.55847824 -0.6088768 0.036541846 -0.31626073 -0.76701874 -0.17710249 -0.54555506
0.09203392 0.04179087 0.3135185 -0.31486714 -0.19773017 0.09030441 0.15776227 -0.75922865
-0.75934386 0.30163524 0.65683275 -0.08186518

layers.1.weight f4 [20, 20]
00000000: f7c8 5ebe 80ee 98be 7a68 163f 8437 98bb
00000010: 0388 04bf cbd1 5fbe f2d4 0f3f 3076 aa3c
00000020: 2dec 0e3e e7ec ff3e 73fa 113f 354b 97be
00000030: 9f18 a2bd a561 a23e dc11 9f3e 9c4f a73d
00000040: 7bc9 bebd f8ca fcbe 3079 d4bd 533b ed3e
00000050: 650d 863e cd72 3a3e 2062 c83e be6f ab3e
00000060: e2c9 0cbf 88a2 2fbe 4f48 cb3e 39c0 33bd
00000070: 53a6 d43e 7bb1 ab3e bd4b 8abe 7676 80be
00000080: 5322 26be 7276 c9bd 12ee 1fbe 6b91 893e
00000090: c8db 123f 5b38 c3be 3e51 583f c063 c43e
000000a0: f6a8 27bf 95b8 2fbc eb87 533d 2c59 6b3e
000000b0: c8a7 dd3d 36ed cb3e 7f18 333e 2a76 bbbe
000000c0: b13b debe 152e b23d 7f19 16bf e7d7 6d3f
000000d0: 570d 113f 78d4 4b3f 9c4f 093f 408d 883e
000000e0: b494 973e 04da 0ebf 66de c8be 7b4b 0ebe
000000f0: bbc8 d3be 19fd 87be df3b 4e3e ae2a 32bf
00000100: 0f8b f83d 9303 2abc f3b1 95bd 9b3f d339
00000110: f439 b8be 2f39 273e 9766 dc3e 2858 a6bd
00000120: e816 d63e e177 cabd c013 f03e 29ea 4e3f
00000130: e4ba 66bd 5345 bfbe 75da a4be 06c8 18bf
00000140: 341b a23d 14d6 9cbd 11d5 b63e 0a67 2d3c
00000150: 12ba 66bf dbee 60be 3238 413e 84e6 febd
00000160: 1cb3 d4bd 9bcb f0bd 3dc5 023f 7d44 42be
00000170: 5f41 9bbe ed86 fbbd 4f4d 04bf b093 893e
00000180: 4582 9fbc 5ea7 833e b966 c23c 79b0 bbbe
00000190: 27cd f63c acb8 1cbe f57f d43e 775f 41bf
000001a0: 051d dcbe ae22 1dbf e595 303e 1016 aa3a
000001b0: bef8 c13e f665 aebe f1a8 d8be 3b39 11be
000001c0: c4da 073e d8e1 9dbe 3f62 3fbe f1d9 d6be
000001d0: 5cfe 4ebf ac01 41bd 66fd a43e 883f 93be
000001e0: 77c9 28bf 8604 4c3e deca 723e 12c4 3d3e
000001f0: 125b bf3e 9404 2d3e d350 073e fc17 a7bd
00000200: a4fa d93e be54 8fbd 9e36 ab3e c582 36bb
00000210: e79d ebbc 0d69 a2be 6f34 afbe 7430 353f
00000220: ac6b 52be 6d36 923d 195e 353e b5ab f0bd
00000230: bc4d 0a3f 5b10 87bd 8927 e53d 2558 0cbf
00000240: bc1d fa3e e479 b83b 8ed8 e0be f8cc 53bd
00000250: ed40 bebe ad63 193f 7ab4 133e ecb4 b1be
00000260: 077b ddbe 8502 733e 7a15 04be 6faa 293e
00000270: c506 d93e d51f 56be 0e77 35be 1d0a 8e3d
00000280: 5d08 da3e e9d7 9ebe 6f36 f8be b6b2 663f
00000290: 7132 ca3d 6c3c 43be 301d a8be f1f2 37bd
000002a0: e005 fe3e 4a19 953e 6215 9abe c58f 0b3f
000002b0: 193c dabe 3536 723f 3229 2fbe 48e4 16be
000002c0: da59 21bf 814b 2a3e d612 893e 4b76 67be
000002d0: 6aaf f83e 68bc 343f 3af4 0ebf 956f 64be
000002e0: 978c d9bd 7cdb e4bd 1f4e 9e3d 925d 123f
000002f0: bd0a 8a3e a70a b23e 178f 36be 5c82 f5be
00000300: cd32 bdbe f853 97be 4efb 72bd ecb4 0abf
00000310: 0b17 5a3f 7ae9 dabc 8a42 c4be 11ec 0c3e
00000320: eccf 0e3f bfa0 bdbb d604 dd3e e631 93be
00000330: 9c71 85bf 36c9 75be c665 d13e 4d1a 0a3f
00000340: cfbf 3f3f 6ca7 023e 89cd da3d 6c16 833e
00000350: a58b e73e 7e13 62be 9a0e 8fbe f7aa 10be
00000360: eebc 88be c07c 36bf 98aa 753e 4b61 833f
00000370: d08e 4c3e 5fc0 4e3c 5c1c 963e 82ef 9a3d
00000380: d9c2 b63e be21 c03e c83b 2c3e 4c92 ab3e
00000390: 6da1 4abe d1f2 25be e77b acbe a3c1 3a3d
000003a0: c3f9 53be 0eaf c7be cfd8 e1be 9018 283f
000003b0: a86d 383f 42d1 493d dbac 24bf 12ca 38be
000003c0: d2a6 e4bd d503 c7be 8da1 07be 91b4 f73b
000003d0: de52 51be 560e 0ebf 685f 04bf 1268 45be
000003e0: 4f17 293e 1e96 12be 71a3 cb3e 15f3 1a3f
000003f0: c352 f7be 62c7 21be 141a a1be e778 643e
-0.2175635 -0.2986946 0.5875317 -0.00464529 -0.5177004 -0.21857373 0.56184304 0.02080831
0.13957281 0.4998543 0.5702278 -0.29549566 -0.07914852 0.31715122 0.31068313 0.08169481
-0.09315773 -0.49373603 -0.10374677 0.46334323 0.26182094 0.18207856 0.39137363 0.3348369
-0.5499555 -0.17151845 0.39703605 -0.04388449 0.41533145 0.33533844 -0.2701091 -0.2509038
-0.16224031 -0.09837045 -0.1561816 0.26868758 0.5736661 -0.38128933 0.84498966 0.38357353
-0.6549219 -0.01072516 0.051643293 0.22983235 0.10823017 0.39829415 0.17489813 -0.3661359
-0.43404916 0.08700196 -0.58632654 0.92907566 0.5666098 0.79621077 0.536371 0.26670265
0.2960564 -0.55801415 -0.39232177 -0.13895981 -0.41364083 -0.26560286 0.20140027 -0.69596374
0.12135898 -0.010376829 -0.07309332 0.00040292446 -0.35981715 0.16330408 0.4304702 -0.08122283
0.4181435 -0.09886146 0.46890068 0.8082605 -0.056330577 -0.37357578 -0.3219792 -0.5968021
0.07915345 -0.0765802 0.35709432 0.010583648 -0.9012767 -0.21966116 0.18869093 -0.12446311
-0.10385725 -0.11757585 0.5108221 -0.18971439 -0.30323312 -0.122815944 -0.51680464 0.2687049
-0.019471297 0.2571363 0.023730623 -0.36658075 0.030127121 -0.15304822 0.41503873 -0.7553629
-0.4299089 -0.6138104 0.1724468 0.0012976546 0.37885088 -0.34062165 -0.42316392 -0.14181988
0.13267046 -0.30836368 -0.18689822 -0.4196315 -0.8085687 -0.047120735 0.32224578 -0.28759408
-0.6593241 0.199236 0.237102 0.18531826 0.3737417 0.16896278 0.13214426 -0.081588715
0.42574036 -0.06998585 0.33440107 -0.002784894 -0.028761817 -0.31720772 -0.3421969 0.7077706
-0.20548886 0.07139287 0.17711677 -0.117515005 0.54024863 -0.065949164 0.11189181 -0.54822
0.4885081 0.005629765 -0.43915218 -0.051709145 -0.3715891 0.5991772 0.14424315 -0.34708345
-0.43257925 0.2373143 -0.12898818 0.16568922 0.42387977 -0.2091058 -0.17721197 0.06935523
0.42584506 -0.310241 -0.4847903 0.9011644 0.09872902 -0.19066018 -0.32834768 -0.04490942
0.49613857 0.29120857 -0.3009444 0.5451625 -0.42623976 0.94613963 -0.17105559 -0.1473552
-0.6302773 0.16630365 0.26772183 -0.22603719 0.4857133 0.70599985 -0.5584141 -0.2230819
-0.106225185 -0.11174676 0.07729744 0.57174027 0.26961318 0.34773752 -0.17828022 -0.4795102
-0.3695282 -0.2955625 -0.059321694 -0.54182315 0.8519141 -0.026722658 -0.38332015 0.13761927
0.55786014 -0.0057869847 0.43167752 -0.28749007 -1.0425296 -0.24002537 0.4089796 0.5394638
0.7490205 0.12759179 0.10683734 0.25603044 0.45223728 -0.22077748 -0.27940828 -0.14127718
-0.26706642 -0.71284103 0.23990858 1.0264066 0.19976354 0.012619107 0.2931851 0.07565214
0.35695532 0.37525743 0.1681968 0.33510053 -0.19788142 -0.16205908 -0.3368828 0.045594823
-0.20700745 -0.39000744 -0.44110724 0.6566248 0.7204232 0.04927183 -0.64326257 -0.18045834
-0.11164631 -0.3887011 -0.1324522 0.007559367 -0.20441768 -0.55490625 -0.5170808 -0.19277981
0.16512798 -0.14315078 0.39773133 0.60527164 -0.4830533 -0.15798715 -0.3146521 0.22311746

layers.1.bias f4 [20]
00000000: cd90 86bd 8668 55be 7640 f7bd 4db1 1abe
00000010: 95e6 163e 95ac 093c 32da 25bd ea0d 223e
00000020: 5243 0fbd 4ebd f13b 14bc 6bbe 8407 dabd
00000030: a1c2 c5bd 9214 92be c583 29be 1e95 a1bd
00000040: 9382 9cbd 2b99 5b3d 8a1f 073e 4fa5 353c
-0.06570587 -0.20840654 -0.12072842 -0.15106697 0.14736398 0.008402963 -0.04049129 0.1582562
-0.03497631 0.007377303 -0.23020965 -0.10645965 -0.09656263 -0.2853132 -0.16554172 -0.0788977
-0.076420926 0.05361287 0.13195625 0.011086776

layers.2.weight f4 [20, 20]
00000000: 2a74 9a3c a3c9 52be 9242 c6bd d7b0 77be
00000010: 3591 5cbe e478 2c3f d1c3 3f3f f4de d2be
00000020: 8177 c7bd 07f7 a5be cfa0 55bf ac54 94bd
00000030: 24aa 853e 4fc4 21bf 0b57 1ebf 6811 233f
00000040: 5da0 dd3d 11b2 933e 762f 363d e4ad 6bbd
00000050: a332 babc c9d1 6bbe 7424 623f 676b 673c
00000060: dca3 43bf 088f 47bd b086 253e a4b7 be3e
00000070: 0ea9 d73d 8057 713e c42d a83e 0c7c 5f3e
00000080: fb3a 10be 02b7 fe3e 9379 6abf 770b a03d
00000090: d8f3 ba3d 3851 a2bc 28df 6b3e 407f ba3e
000000a0: 7a8d 3f3e 2058 8cbe d921 efbd 14d0 183e
000000b0: 2deb 023f d99f afbd c34b cbbe 21f0 8cbd
000000c0: 04d8 6fbe 3ec7 7dbd 66a7 943e aa18 613d
000000d0: 879c 5fbe 6c98 ef3e fc76 fb3d 938a 53bf
000000e0: 4083 c73d 112b 9cbd 76ff 34be ef14 263e
000000f0: 7f0b d1be 8b08 6cbe 70ff 06bf a31b fe3e
00000100: 3b29 b9be 5080 e9bd 87d1 de3d 4aca f7be
00000110: 26e2 d43d 4228 533e 2dda 8e3d 59b0 dfbe
00000120: 6f6f a6be 90cb ad3e 5c01 10be e28c 733e
00000130: df44 593f 21e2 40bf d963 4bbf f7ad 12bf
00000140: 9c11 84be a9ab 1a3d 8d55 f33d cefc 383c
00000150: 09ef 47be f40a 47bd 1a73 0c3f c602 88be
00000160: 237e 3dbd c2e8 94be de88 913e 7433 af3b
00000170: 1bc3 48bd ce48 1fbf 89e6 3ebf 7e14 30bf
00000180: b90a 66bb 329a 713c 80a4 bb3e 28b3 acbd
00000190: faea 303e a44d 6e3e 96e0 d9bd d796 f23d
000001a0: bc20 05bf 15f9 d8bd c90a bebe 4e40 c73d
000001b0: 8544 a23c 44a0 9bbe dd8a 46bf 8c2e 64bf
000001c0: ac7b ca3e 3549 52bc 395a 783d a515 5fbf
000001d0: bc36 00bf 58ee 5a3e eabc f8ba 840f 3bbe
000001e0: b677 d23e 1ea7 18bf 9fad 9cbe 687a f8be
000001f0: 6fbd 183d b720 88be 9db3 373e 3658 9a3e
00000200: 2bd2 8a3e 10ed bdbe 07bc 57be 9b6e b7be
00000210: b855 dd3e 7853 92be 1ab5 f4be 2e0e 93be
00000220: 238e 5c3d 8139 fdbe 8f7d e3bd fba9 89be
00000230: 1a71 49be e3ef a7be 2c69 283d 0604 e43e
00000240: 3ea2 e2be 8d9b 143f 2c9b d33e a3c4 4dbd
00000250: 2c5c c1be 715a fabd f02a 1f3e be32 e23e
00000260: 7534 aabe 977d 83be e01f 42be 57c8 6a3f
00000270: 5689 f3be 4c1b 53bd 45a0 e6bd b05a 153f
00000280: bab1 1cbf ffd5 03bf 55a9 9ebe c9dd 953e
00000290: 413a 6e3f ea23 8c3e ebc4 283e c429 bbbe
000002a0: f74a 5a3e 294a 053f fb84 3cbf a37f 5c3e
000002b0: 666c 68be 9de7 df3e 416d 7f3d a089 65be
000002c0: 8150 483e 89b5 37be 1cad a7be 25bf d43e
000002d0: 900f 2dbe 2f91 b53c af48 69bb efaa aa3e
000002e0: 2369 bbbb 0b07 b93d 3f42 073d abdb 3c3e
000002f0: 31fd e93d b739 b43e 9b97 263d 511c 463d
00000300: 4e06 d3be abac 933e 7388 c83e 3962 9b3d
00000310: afe5 92be 7f27 e6bd dcfa 353d a29b 633c
00000320: 341a 3b3e be0b b0bd f614 093f 30fd dd3e
00000330: 7936 40be 4c1a 093f 669c 133e 75d7 93bd
00000340: 9e9c c73d ed78 42be efaa 8f3e 5768 0cbf
00000350: 5b05 c1bd ec89 06bf 410d 753e 97f0 16bc
00000360: 97b7 b33e cb87 ed3d 3400 b0be a319 ffbe
00000370: a600 16bd b5e6 99bd 5ba6 7d3e 5f7f eebe
00000380: b058 dcbe 7e4b 4d3f 33c9 6c3e 785e 243f
00000390: 3b5f 193d d7f8 c43e 557a cc3e 7cfb 143e
000003a0: e41c 9bbe 090b 84bf c09d fbbd 1445 cbbb
000003b0: 6cf3 363e bd2e 5abe 72bd 1bbf a757 9abe
000003c0: bd50 47be a934 b83e 36d5 0abe a2be b83e
000003d0: 3b1f 9dbd c331 83be ea92 b1be e378 c3be
000003e0: 03ea a9be ff1a 7e3e 9743 da3d 8465 ffbd
000003f0: 63eb c4be b10f 70bf aad4 59bf d624 22bf
0.01885422 -0.20584731 -0.09680666 -0.24188553 -0.21539767 0.67371964 0.7490817 -0.41185725
-0.097395904 -0.3241503 -0.834485 -0.072427124 0.2610637 -0.6319017 -0.6185157 0.63698435
0.108216025 0.2884679 0.044478856 -0.057538882 -0.022729224 -0.23029245 0.88336873 0.014124728
-0.76421905 -0.04872039 0.1616466 0.37249482 0.105302915 0.23568535 0.32847416 0.21824664
-0.14085 0.49749 -0.9159176 0.07814687 0.09128541 -0.019814119 0.23034346 0.3642521
0.18706313 -0.27410984 -0.11676378 0.14923126 0.511401 -0.085754104 -0.3970624 -0.068817385
-0.23422247 -0.06195759 0.29033965 0.054955162 -0.21837054 0.46795976 0.12278554 -0.8263332
0.09741831 -0.07625402 -0.17675576 0.16218923 -0.40829083 -0.23050134 -0.52733517 0.4963046
-0.3616427 -0.11401427 0.10879808 -0.48396522 0.10394697 0.20620826 0.069752075 -0.4368923
-0.32506892 0.33944368 -0.14063019 0.23784211 0.84870714 -0.75345045 -0.7944923 -0.572967
-0.25794685 0.037761364 0.11881552 0.011290742 -0.19524778 -0.04859443 0.5486313 -0.26564616
-0.04626287 -0.2908383 0.28424734 0.00534671 -0.049014192 -0.62220466 -0.7457052 -0.6878127
-0.0035101606 0.014746236 0.3664894 -0.08432609 0.17277136 0.23271805 -0.106385395 0.11845177
-0.52003074 -0.105943836 -0.37117603 0.09729062 0.019808063 -0.3039571 -0.7755564 -0.89133525
0.3954748 -0.012834837 0.060632918 -0.871424 -0.5008352 0.21379983 -0.0018977199 -0.18267637
0.41106957 -0.5963 -0.30601212 -0.4853089 0.037290033 -0.2658746 0.17939611 0.30145425
0.2711347 -0.37094927 -0.2106782 -0.35826573 0.4322946 -0.28579307 -0.4779442 -0.28721756
0.05384649 -0.49457934 -0.11107933 -0.26887497 -0.19672051 -0.32800207 0.041115925 0.4453432
-0.44264406 0.5804985 0.41329324 -0.050236356 -0.37765634 -0.122242816 0.15543723 0.44179338
-0.33243147 -0.25681755 -0.18957472 0.91711944 -0.47565717 -0.051539704 -0.11261038 0.58341503
-0.6120869 -0.5149841 -0.30988565 0.2927077 0.9305764 0.2737115 0.16481368 -0.36555302
0.2131766 0.52066284 -0.7364041 0.21533065 -0.226976 0.43731394 0.062360052 -0.22415781
0.1956196 -0.17940344 -0.3274926 0.41552082 -0.16900468 0.022163955 -0.0035596301 0.33333537
-0.0057193204 0.090345465 0.03302216 0.18443172 0.114252456 0.35200283 0.040671926 0.04836685
-0.41215748 0.28842673 0.39166602 0.07587094 -0.2869086 -0.11238002 0.04442869 0.013892086
0.18271714 -0.0859599 0.5354761 0.4335723 -0.1877078 0.5355575 0.1441513 -0.072188295
0.09746669 -0.18991442 0.280601 -0.5484671 -0.094248496 -0.525542 0.23930837 -0.0092126345
0.35101005 0.11598166 -0.34375155 -0.49824247 -0.036621712 -0.07514707 0.24770491 -0.4658155
-0.43036413 0.80193317 0.23123626 0.6420665 0.037444334 0.384711 0.39937082 0.14549059
-0.3029548 -1.0315868 -0.12285948 -0.006203303 0.17866296 -0.21306892 -0.60835946 -0.30144998
-0.19464393 0.35977677 -0.13557896 0.3608294 -0.07671972 -0.25623903 -0.346824 -0.38178167
-0.3318635 0.24814986 0.10657423 -0.124705344 -0.38460836 -0.93773943 -0.85090125 -0.6333746

layers.2.bias f4 [20]
00000000: ba89 74bd c94b 4a3e 405f 443e 255f 8e3d
00000010: f2c4 89bd 0904 7e3d 7021 1c3d 4a13 29bd
00000020: 8a7c 023e 3963 0c3d 17d7 48bd d067 f73d
00000030: 654e 6f3c c63a 0a3e 7ced 323e 82ba 033e
00000040: fa6e 5abe 3e17 ecbd 5e63 193e caec 2cbd
-0.05970166 0.19755472 0.1917696 0.06951741 -0.067270175 0.062015567 0.038117826 -0.04127816
0.1274282 0.034274314 -0.04903325 0.120803475 0.014606093 0.13498983 0.17473406 0.12864116
-0.21331397 -0.115278706 0.14979312 -0.042218007

layers.3.weight f4 [1, 20]
00000000: 1b21 133f aa17 333e da0f fb3c 47a1 9a3d
00000010: 0e09 82bd 964d 38bd 3ff3 bcbd dcaa 833e
00000020: 72d3 823d 38ae eb3d 8d2c a5be b44d 693d
00000030: 69da c03c 867b 31be ab74 1abd cc71 163d
00000040: 9f64 63be 59b0 89be 076d 763e 7bf7 6d3e
0.5747239 0.17489496 0.030647207 0.075502925 -0.06349383 -0.044995867 -0.09226083 0.25716293
0.06387986 0.11507839 -0.32260552 0.05695887 0.023541646 -0.17332277 -0.03770892 0.03672962
-0.22206353 -0.26892355 0.24065028 0.23238938
