01_pure_bend/GPU/net_v_20240702_214919.pth (torch, 6287 bytes, 7 tensors)

layers.0.weight f4 [20, 2]
1.042333 0.43249753 -0.49510288 0.18890078 -1.1349391 -0.96636146 -0.82630235 -0.8986837
-0.53678817 -0.47471836 0.54332376 0.31764016 0.32875597 -0.6451519 0.27250147 1.0353651
-1.2317866 0.93729913 0.46409005 1.01546 -0.9335846 0.9481959 1.8187312 -0.052437667
0.8268718 1.1583902 2.2441514 -0.14105266 0.11358921 1.2772869 -1.4967291 -0.88965267
1.1494762 -1.4827166 2.517367 1.7608993 2.1742918 -0.03075182 -0.9818303 1.0738024
00000000: 2b6b 853f 5170 dd3e 207e fdbe 356f 413e
00000010: af45 91bf 7763 77bf 8d88 53bf 2310 66bf
00000020: f36a 09bf 490e f3be 4417 0b3f bba1 a23e
00000030: b452 a83e ad28 25bf 5085 8b3e d886 843f
00000040: 2fab 9dbf d6f2 6f3f 369d ed3e 98fa 813f
00000050: 66ff 6ebf f7bc 723f 2fcc e83f e1c8 56bd
00000060: dfad 533f 2146 943f 2da0 0f40 1c70 10be
00000070: 76a1 e83d 237e a33f d294 bfbf 47c0 63bf
00000080: 0922 933f a8c9 bdbf 8a1c 2140 2665 e13f
00000090: 9927 0b40 3eeb fbbc 3b59 7bbf 5b72 893f

layers.0.bias f4 [20]
0.8649932 -0.16027375 0.095569685 0.6096933 0.451203 0.4044975 -0.7956667 0.32409588
-0.42720544 -0.37843618 0.57516253 -0.34169894 -0.71243554 0.5110256 0.8021725 0.6443711
-0.5400303 0.9048371 0.3438223 -0.48321667
00000000: 3270 5d3f cd1e 24be 0aba c33d dc14 1c3f
00000010: 1404 e73e 4c1a cf3e d0b0 4bbf e5ef a53e
00000020: acba dabe 63c2 c1be da3d 133f 2af3 aebe
00000030: 2d62 36bf 93d2 023f 2d5b 4d3f 81f5 243f
00000040: 6d3f 0abf 67a3 673f 7a09 b03e 2d68 f7be

layers.1.weight f4 [20, 20]
0.11385651 -0.27721247 0.10970794 -0.21660966 -0.28121513 0.12198691 0.7303764 -0.013771736
0.05215991 0.39463353 -0.136504 -0.013634273 0.22704369 0.16201307 -0.4443098 0.026099151
-0.15649906 0.20225905 0.2819011 -0.003098411 -0.8597597 -0.36165556 0.57736164 -0.4442367
-0.29718935 0.13849662 0.323958 0.6429458 -1.0124751 -0.20901667 -0.5125202 -0.5342903
0.4067817 -0.012398303 0.093281865 -0.16981909 -0.6097207 -0.43607163 0.47365987 0.037703026
0.6182681 -0.9427087 0.09037888 -0.40872043 0.07070676 0.19264616 0.33210066 0.08838037
0.11977811 0.15908165 0.19839558 0.16795139 -0.49913424 -0.19558503 0.67901355 0.41718113
0.23633139 0.16411072 0.18614182 0.5444103 0.24800785 -0.3982625 -0.31831223 0.63273627
-0.25444767 -0.114441015 0.18010397 0.41466114 -0.1439547 -0.16939719 -0.017997494 0.16204712
0.21424833 0.29417565 -0.24024 0.030125469 -0.008743287 0.3285287 -0.21714301 -0.54159445
0.68273586 -0.0005311924 0.22165477 0.07905379 -0.058190845 0.23172314 0.48685327 0.27446526
0.06180694 0.29198143 0.18308166 -0.05016039 0.56603247 0.1275283 0.3061478 0.15833697
0.088315524 -0.4708732 0.18623151 -0.5445681 -0.40561 -0.3404264 0.44717425 0.06686841
0.1692777 0.11526569 -0.046934184 -0.0028373455 0.23191728 0.3653079 0.27833956 -0.50532943
0.6687305 -0.067078985 -0.71931845 -0.57656515 0.17343919 -0.1306066 0.095571294 -0.07113064
-0.72891736 -0.1934158 0.13215025 0.065654755 -0.013458317 -0.23568797 -0.10006782 0.7474744
-0.31238773 0.31130886 0.57041603 0.34536836 0.07592848 0.36753756 -0.4276775 -0.11993208
-0.098269224 -0.32356283 -0.13934545 -0.005434438 0.2294249 0.32338485 0.283434 -0.009640361
0.23018408 -0.8693122 1.1197428 -0.8390552 -0.39645356 -0.18093672 -0.004086031 0.5170793
0.014867223 -0.7028961 -0.34592238 0.44613215 0.4778256 -0.09789425 -0.33032757 0.81094223
0.09767654 0.37237957 -0.71528894 -0.3587133 -0.6811509 0.2021213 0.48506537 -0.1762127
-0.45774162 0.54237133 -0.20331676 0.07835722 0.25299627 0.26195282 -0.13184804 0.78660727
-0.51509136 -0.7277551 -0.25285262 0.62686753 0.19746621 -0.13268797 -0.38121727 0.367039
-0.23145221 0.16283104 0.54434377 0.5186695 0.088144876 -0.51078695 -0.47317347 -0.2352678
-0.2802678 -0.16046229 0.4527113 -0.22990106 -0.35056782 -0.3447111 0.1093875 -0.071747825
-1.2114834 0.5273423 -0.042308506 -0.64839864 -0.22334893 -0.2967095 0.053893898 0.16372357
0.098572016 -0.23440862 0.075010836 -0.0093301805 0.0022863687 0.31050128 0.2761852 -0.090099744
-0.5460498 -0.754157 -0.034727674 -0.65408844 0.16209847 -0.3750912 0.51237404 -1.0011332
-0.4198922 -0.16619892 0.3395402 0.23628035 -0.044481866 -0.16939698 0.20921017 -0.2860225
0.42084715 -0.30071697 -0.25021556 0.74645114 -0.4653374 -0.21605971 -0.06078874 -0.063759916
-0.17830043 0.18201154 -0.25563425 0.41994032 -0.0050519556 0.48596567 0.22016001 0.15881594
-0.5835378 0.15734214 0.6274272 -0.6889826 0.24796857 -0.14491001 0.35446656 0.48655522
00000000: 9a2d e93d cbee 8dbe 8eae e03d ecce 5dbe
00000010: 6efb 8fbe 46d4 f93d f3f9 3a3f d9a2 61bc
00000020: a1a5 553d 680d ca3e b4c7 0bbe 4962 5fbc
00000030: 247e 683e c1e6 253e 937c e3be e3cd d53c
00000040: 4a41 20be ff1c 4f3e 5755 903e b60e 4bbb
00000050: 3619 5cbf eb2a b9be f9cd 133f fe72 e3be
00000060: 3429 98be 0fd2 0d3e d3dd a53e 1998 243f
00000070: c998 81bf 7708 56be 8634 03bf 40c7 08bf
00000080: b145 d03e 4022 4bbc 900a bf3d 0ee5 2dbe
00000090: a816 1cbf c844 dfbe 8c83 f23e 7d6e 1a3d
000000a0: d146 1e3f 5b55 71bf 9018 b93d ce43 d1be
000000b0: b5ce 903d 0945 453e 1909 aa3e c400 b53d
000000c0: 3a4e f53d 4de6 223e 3628 4b3e 73fb 2b3e
000000d0: 868e ffbe 7147 48be d5d3 2d3f c498 d53e
000000e0: db00 723e a40c 283e f69b 3e3e 795e 0b3f
000000f0: c5f5 7d3e 10e9 cbbe d2f9 a2be 01fb 213f
00000100: f746 82be 0d60 eabd 2d6d 383e 774e d43e
00000110: dc68 13be 7576 2dbe 7b6f 93bc aeef 253e
00000120: ea63 5b3e 319e 963e 7901 76be b0c9 f63c
00000130: 0140 0fbc ea34 a83e bd5a 5ebe efa5 0abf
00000140: c7c7 2e3f b83f 0bba 78f9 623e f4e6 a13d
00000150: 8659 6ebd d548 6d3e d544 f93e b686 8c3e
00000160: 4629 7d3d 977e 953e c279 3b3e fb74 4dbd
00000170: 81e7 103f c796 023e 68bf 9c3e 1623 223e
00000180: c5de b43d 4b16 f1be 79b3 3e3e d168 0bbf
00000190: 1dac cfbe 5e4c aebe 06f4 e43e 4ef2 883d
000001a0: 2257 2d3e 6b10 ec3d 0f3e 40bd c2f2 39bb
000001b0: b97b 6d3e a309 bb3e 8682 8e3e 455d 01bf
000001c0: ec31 2b3f b560 89bd 4125 38bf c699 13bf
000001d0: 0b9a 313e bdbd 05be e2ba c33d f1ac 91bd
000001e0: 549a 3abf cb0e 46be 6552 073e 0076 863d
000001f0: 4680 5cbc 3058 71be 5bf0 ccbd 7b5a 3f3f
00000200: 49f1 9fbe e063 9f3e c906 123f 1fd4 b03e
00000210: 6480 9b3d e22d bc3e 8cf8 dabe f39e f5bd
00000220: 6041 c9bd 07aa a5be 93b0 0ebe 5f13 b2bb
00000230: 5cee 6a3e b392 a53e 431e 913e 9bf2 1dbc
00000240: 60b5 6b3e 3f8b 5ebf bb53 8f3f 52cc 56bf
00000250: f6fb cabe 7a47 39be 1de4 85bb 4f5f 043f
00000260: a795 733c 00f1 33bf bd1c b1be 6f6b e43e
00000270: 8fa5 f43e c87c c8bd b220 a9be e999 4f3f
00000280: a30a c83d 89a8 be3e 2d1d 37bf 45a9 b7be
00000290: e85f 2ebf e3f8 4e3e 7d5a f83e 1a71 34be
000002a0: 1c5d eabe d9d8 0a3f 4532 50be c079 a03d
000002b0: ba88 813e ae1e 863e 2c03 07be 185f 493f
000002c0: 07dd 03bf 294e 3abf e675 81be 647a 203f
000002d0: 9534 4a3e 5bdf 07be e92e c3be 89ec bb3e
000002e0: cf01 6dbe 2ebd 263e 1d5a 0b3f 86c7 043f
000002f0: 4d85 b43d efc2 02bf cb43 f2be 0bea 70be
00000300: 437f 8fbe 3a50 24be c7c9 e73e 2f6b 6bbe
00000310: a07d b3be f97d b0be 8e06 e03d 86f0 92bd
00000320: e311 9bbf e8ff 063f af4b 2dbd 74fd 25bf
00000330: 95b5 64be 4fea 97be d9bf 5c3d 27a7 273e
00000340: 20e0 c93d d008 70be 489f 993d 9ddd 18bc
00000350: e7d6 153b 06fa 9e3e 2668 8d3e 3786 b8bd
00000360: ebc9 0bbf 6f10 41bf 9b3e 0ebd 5772 27bf
00000370: 24fd 253e f40b c0be f22a 033f 2225 80bf
00000380: 1cfc d6be 0d30 2abe 37d8 ad3e 7af3 713e
00000390: 9e32 36bd 6776 2dbe 313b 563e 8b71 92be
000003a0: 4779 d73e 93f7 99be 411c 80be 6c17 3f3f
000003b0: b440 eebe c23e 5dbe 9dfd 78bd 8f94 82bd
000003c0: 6394 36be 3c61 3a3e 7ee2 82be 6b02 d73e
000003d0: e08a a5bb 7ed0 f83e a071 613e a5a0 223e
000003e0: bc62 15bf 4c1e 213e 129f 203f 2a61 30bf
000003f0: 79eb 7d3e 4a63 14be a47c b53e c41d f93e

layers.1.bias f4 [20]
-0.27167463 -0.027412899 0.0014409062 0.22382201 0.16800152 -0.24451615 -0.21282284 -0.3742674
0.19890982 0.08639519 -0.35188037 0.02562178 0.23558553 0.006798913 0.008433963 -0.25726697
-0.13196765 -0.05640889 0.015874159 -0.03848239
00000000: f018 8bbe 0491 e0bc cadc bc3a 9931 653e
00000010: 9708 2c3e 7162 7abe 3bee 59be fa9f bfbe
00000020: 04af 4b3e f6ef b03d aa29 b4be c4e4 d13c
00000030: 553d 713e 6ac9 de3b 9b2e 0a3c 7fb8 83be
00000040: 8722 07be 020d 67bd 860a 823c b69f 1dbd

layers.2.weight f4 [20, 20]
-0.07657148 0.43816426 0.19508882 -0.4169849 0.7310777 -0.44479054 -0.74288976 -0.19354044
0.62393415 0.8800112 0.030017897 -0.5091149 -0.32970724 0.058935262 0.21028768 -0.53095233
-0.702871 0.16610071 0.26230776 -0.56311965 -0.38647544 0.2639279 -0.00572034 -0.19276276
-0.14037085 0.06739526 -0.2500614 -0.31916383 0.120381735 0.23379071 0.090009004 -0.3898825
-0.09231231 0.38445798 -0.3720849 0.3814147 -0.10275435 0.2782312 0.15420143 -0.0135145
0.32893738 0.5119958 -0.28885856 0.12635417 -0.4382567 0.11331266 -0.8368315 -0.37174615
0.0634389 0.13988751 -0.09400323 0.2294797 -0.39036655 -0.19557647 0.4397356 -0.4137797
0.12756604 0.044991143 0.029567815 -0.5651314 -0.08371666 0.20039491 -0.65044564 -0.03263984
0.07812751 0.11112889 -0.08139052 0.6090468 0.38757092 0.051490523 0.17430156 -0.09060781
-1.0048964 -0.33784267 0.28432775 0.14570603 -0.3786628 0.10330818 0.9871557 -0.035600938
-0.14135173 0.54992044 0.8476718 -0.1885961 -0.085144125 0.01732011 0.03303482 0.08887121
-0.09737387 0.14708422 -0.27754995 0.38265413 -0.10414929 0.64334565 0.031912092 -0.33462727
0.4219847 0.32610637 0.0975463 0.6235707 -0.22796759 0.00035006084 0.10824648 -0.053235136
-0.5372973 0.056382425 1.0851607 -0.04633215 0.47498545 -0.1646263 0.15766434 -0.44672176
0.44145304 -0.31877232 0.08240732 0.17884082 -0.25818273 0.12966354 -0.1395586 -0.3164299
0.13495415 0.24909942 -0.100488335 -0.1205125 -0.097082265 0.13220505 -0.34687218 -0.53290737
-0.19089948 0.20014109 -0.05631465 0.33233905 0.06462318 0.97884387 -0.20487118 0.20211309
0.4856314 -0.20220926 0.4018182 -0.6500298 0.20154844 0.6895454 0.086287566 -1.033158
0.09648235 0.21824446 0.14246772 0.07656561 0.48669577 0.6214582 -0.17213234 0.015431244
0.15446462 0.15346268 -0.41786957 0.5784612 0.22654535 0.095267124 -0.5492046 0.024864953
0.14510678 0.060048588 0.18519749 -0.06182046 0.59182364 -0.4982819 0.14470527 -0.20351802
-0.22585715 -0.2890632 -0.31181633 0.10493752 0.3765304 0.3418283 -0.29021645 -0.16889682
-0.2219741 -0.509429 -0.022877472 -0.24966133 -0.54901344 0.198126 0.49708107 -0.16868497
0.56474066 -0.86930436 -0.084268786 -0.82313585 0.27466074 0.457804 -0.19210942 0.21412428
0.16652131 -0.03960808 0.69914645 -0.33877462 0.1707709 -0.48878586 -0.23760214 0.26854128
0.591343 -0.21405287 -0.51765305 0.010933657 0.3707336 0.39765492 0.32182539 0.31227297
0.06819579 0.36757082 0.4534565 0.18066248 -0.2610643 0.31951272 0.091284595 -0.7435856
-0.18508591 -0.057158377 -0.20177199 -0.116962954 0.2422039 -0.0747522 0.17556591 -0.26055083
-0.04705191 0.4222318 0.29118788 -0.74151486 0.35156357 0.2712984 -0.064189926 0.33566302
0.0824411 -0.67538226 0.15817375 0.23949033 -0.61431515 -0.30017152 -0.22350977 0.48736694
-0.9376501 0.013547432 0.19236653 0.2223866 -0.5383109 0.26384014 0.098708525 0.44929716
-0.039345704 0.35310864 -0.20438853 -0.05895232 0.10167276 -0.6903709 0.70897686 0.36097482
00000000: 82d1 9cbd 1157 e03e 5dc5 473e 0b7f d5be
00000010: e827 3b3f 96bb e3be 062e 3ebf 772f 46be
00000020: 26ba 1f3f 6a48 613f 18e8 f53c 5b55 02bf
00000030: 63cf a8be 1a66 713d a755 573e 7eec 07bf
00000040: 5bef 33bf 4e16 2a3e 344d 863e 9c28 10bf
00000050: 1ce0 c5be 8f21 873e b171 bbbb 9a63 45be
00000060: 60bd 0fbe 8706 8a3d 0c08 80be 7169 a3be
00000070: b38a f63d d566 6f3e a456 b83d ae9e c7be
00000080: 3d0e bdbd add7 c43e e981 bebe ca48 c33e
00000090: df70 d2bd 5274 8e3e fbe6 1d3e ec6b 5dbc
000000a0: 7b6a a83e 2812 033f 45e5 93be fd62 013e
000000b0: 2f63 e0be 7810 e83d 973a 56bf 8355 bebe
000000c0: 41ec 813d ac3e 0f3e c484 c0bd bafc 6a3e
000000d0: 20de c7be 3345 48be 0625 e13e efda d3be
000000e0: aca0 023e a248 383d 3438 f23c 74ac 10bf
000000f0: a473 abbd 5334 4d3e 9b83 26bf 5ab1 05bd
00000100: 5101 a03d 8b97 e33d 13b0 a6bd 7eea 1b3f
00000110: b26f c63e bae7 523d 1c7c 323e 9690 b9bd
00000120: 72a0 80bf b7f9 acbe 6893 913e f633 153e
00000130: 17e0 c1be 3d93 d33d 3cb6 7c3f 4ad2 11bd
00000140: 82be 10be 96c7 0c3f 0501 593f 561f 41be
00000150: 0b60 aebd e7e2 8d3c 854f 073d 1c02 b63d
00000160: f46b c7bd 3f9d 163e 071b 8ebe 3eeb c33e
00000170: 394c d5bd 4db2 243f 41b6 023d 4454 abbe
00000180: 610e d83e 6af7 a63e 5bc6 c73d 54a2 1f3f
00000190: 5670 69be 5f88 b739 55b0 dd3d 160d 5abd
000001a0: 518c 09bf 42f1 663d 8ce6 8a3f c8c6 3dbd
000001b0: 4b31 f33e cc93 28be c372 213e b7b8 e4be
000001c0: 2206 e23e 2036 a3be 2bc5 a83d 0c22 373e
000001d0: 8730 84be 85c6 043e 73e8 0ebe 1a03 a2be
000001e0: 6c31 0a3e eb13 7f3e d4cc cdbd 42cf f6bd
000001f0: 11d3 c6bd c360 073e 3b99 b1be 9e6c 08bf
00000200: 277b 43be c9f1 4c3e 31aa 66bd 5828 aa3e
00000210: 2859 843d 8395 7a3f c0c9 51be bcf6 4e3e
00000220: aea4 f83e f20f 4fbe 1dbb cd3e 5a68 26bf
00000230: b762 4e3e 0c86 303f 89b7 b03d 853e 84bf
00000240: 8a98 c53d 7a7b 5f3e 0fe3 113e 6ece 9c3d
00000250: 3030 f93e e217 1f3f 7643 30be 54d3 7c3c
00000260: f92b 1e3e 5225 1d3e 00f3 d5be 0916 143f
00000270: 81fb 673e 691b c33d ac98 0cbf 96b1 cb3c
00000280: df96 143e 82f5 753d 69a4 3d3e 7337 7dbd
00000290: c181 173f ce1e ffbe 9e2d 143e 0767 50be
000002a0: 1947 67be 1700 94be 64a6 9fbe 7ce9 d63d
000002b0: 98c8 c03e 1e04 af3e 4097 94be 4af3 2cbe
000002c0: 2e4d 63be f069 02bf 8969 bbbc 38a7 7fbe
000002d0: 258c 0cbf 8be1 4a3e 6981 fe3e c1bb 2cbe
000002e0: d892 103f bb8a 5ebf 1d95 acbd 08b9 52bf
000002f0: 55a0 8c3e 4965 ea3e 55b8 44be 6543 5b3e
00000300: 9084 2a3e 153c 22bd 43fb 323f de73 adbe
00000310: 91de 2e3e 2442 fabe fa4d 73be 3e7e 893e
00000320: 4162 173f ad30 5bbe e984 04bf 1523 333c
00000330: cbd0 bd3e 6d99 cb3e 4cc6 a43e 3ee2 9f3e
00000340: 3caa 8b3d 3e32 bc3e 732b e83e 96ff 383e
00000350: 38aa 85be 2c97 a33e 6bf3 ba3d a05b 3ebf
00000360: 2987 3dbe e71e 6abd 519d 4ebe 468a efbd
00000370: 4d04 783e ae17 99bd 8dc7 333e eb66 85be
00000380: 81b9 40bd c42e d83e 9416 953e ebd3 3dbf
00000390: 2400 b43e a0e7 8a3e 0276 83bd 06dc ab3e
000003a0: e1d6 a83d dae5 2cbf 4df8 213e f43c 753e
000003b0: c243 1dbf 15b0 99be bfdf 64be 2988 f93e
000003c0: d609 70bf 0cf6 5d3c bbfb 443e 50b9 633e
000003d0: bece 09bf 0e16 873e b227 ca3d 470a e63e
000003e0: f628 21bd a8ca b43e 3a4b 51be fd77 71bd
000003f0: cf39 d03d 26bc 30bf 827f 353f b1d1 b83e

layers.2.bias f4 [20]
0.032629102 0.12933868 -0.11227294 -0.12354892 0.093574464 0.2063071 0.07502535 -0.11482508
-0.053275973 0.3325191 -0.1962726 0.010938301 -0.047606915 -0.15974402 -0.07760892 0.010130498
-0.15714861 0.051239137 -0.06382159 -0.019219182
00000000: 18a6 053d 5c71 043e 5bef e5bd 3707 fdbd
00000010: f8a3 bf3d 2b42 533e e4a6 993d 6929 ebbd
00000020: e837 5abd f23f aa3e affb 48be 8f36 333c
00000030: 78ff 42bd f093 23be 6df1 9ebd 63fa 253c
00000040: 91eb 20be 21e0 513d e5b4 82bd 8c71 9dbc

layers.3.weight f4 [1, 20]
0.120072655 0.0117156 0.10026245 0.40356278 0.14157118 0.047734737 0.3932233 -0.23900965
0.40945187 -0.23464 0.13523288 -0.23806964 0.15017149 -0.15667443 0.27376506 -0.024952497
-0.14050034 -0.10800065 0.14353712 0.07633106
00000000: a7e8 f53d caf2 3f3c 6656 cd3d c89f ce3e
00000010: 09f8 103e 8085 433d 9054 c93e f2be 74be
00000020: ada3 d13e 7845 70be 7d7a 0a3e 87c8 73be
00000030: 8ec6 193e 436f 20be ef2a 8c3e 2e69 ccbc
00000040: 52df 0fbe 722f ddbd 65fb 123e 7553 9c3d
