01_pure_bend/GPU/net_u_20240702_214919.pth (torch, 6287 bytes, 7 tensors)

layers.0.weight f4 [20, 2]
0	0xc03e4b46	-2.9733443
1	0xbec29715	-0.3800589
2	0x3ebe672b	0.37188086
3	0x3f370c6b	0.71503323
4	0xbd575236	-0.052568637
5	0x3fcfd5ad	1.6237084
6	0x3eb40921	0.35163215
7	0x3f4f96b9	0.8108936
8	0x3d33a61c	0.043859586
9	0x3fa0c0a6	1.2558792
10	0x3e8ddaa4	0.27705872
11	0xbf73b15e	-0.95192516
12	0xbfe350ca	-1.775903
13	0xbe72e214	-0.23719054
14	0xbfc3fac2	-1.53109
15	0xbdbe33e0	-0.09287238
16	0x3feb76b8	1.8395605
17	0x3e9e3db9	0.30906466
18	0x3fd0f9a0	1.632618
19	0xbf57b5d5	-0.8426183
20	0xbdce735c	-0.10080597
21	0xbe035834	-0.12826616
22	0xbd3a5b40	-0.04549718
23	0xbfccb82e	-1.5993707
24	0xc002b983	-2.0425727
25	0xbf3a1928	-0.72694635
26	0xbf88f101	-1.0698549
27	0x3f58177b	0.8441083
28	0xbd450e50	-0.048109353
29	0x3fa74ab2	1.306967
30	0x3efd8a40	0.4951954
31	0x3e83856e	0.25687736
32	0x3f21a66f	0.6314458
33	0xbfa74136	-1.3066776
34	0x3f2be360	0.6714382
35	0xbdec186e	-0.11528097
36	0xbf831f14	-1.0243859
37	0xbfc010df	-1.5005149
38	0xbf66e7f6	-0.90197694
39	0xbcf4061a	-0.029788066

layers.0.bias f4 [20]
0	0xbef0409f	-0.46924302
1	0x3eaa6a95	0.3328444
2	0xbf2fc95a	-0.68666613
3	0xbebfcf32	-0.37462765
4	0xbef26a2e	-0.47346634
5	0x3edebd9a	0.4350403
6	0xbec69524	-0.3878566
7	0x3f02ac7a	0.5104443
8	0xbf0e84e3	-0.5567152
9	0xbf016010	-0.50537205
10	0xbf018f9e	-0.5060977
11	0xbf2475ab	-0.6424205
12	0xbec1f476	-0.3788182
13	0xbef29471	-0.47378877
14	0xbe9d0521	-0.30667976
15	0xbf1211c2	-0.57058346
16	0xba2bcb79	-0.0006553452
17	0xbe6faec7	-0.23406516
18	0x3ec7c0bc	0.39014232
19	0xbf21ba08	-0.63174486

layers.1.weight f4 [20, 20]
0	0x3e225730	0.15853572
1	0xbe5c0a74	-0.21488363
2	0xbebdfa40	-0.37104988
3	0x3e7f5f10	0.24938607
4	0x3d761d94	0.0600868
5	0xbe07c077	-0.13257013
6	0x3ea56e22	0.32310587
7	0x3e0bbfe4	0.13647419
8	0x3ce3eff4	0.02782438
9	0x3d3dae77	0.04630896
10	0xbe943bcb	-0.28951868
11	0x3db00b8b	0.08595952
12	0xbe2c6053	-0.1683362
13	0x3d1473a0	0.03624308
14	0xbe96f9a3	-0.29487333
15	0x3ee82270	0.45338774
16	0xbf7c1d28	-0.9848199
17	0xbec68062	-0.38769823
18	0xbe5bd2dc	-0.21467155
19	0x3e821da8	0.2541325
20	0xbe09e681	-0.13466837
21	0x3dfb11b6	0.122592375
22	0xbf1023cb	-0.56304616
23	0x3f115a5a	0.5677849
24	0xbf6b0032	-0.91797173
25	0xbe9a2aca	-0.3011077
26	0x3cb82a18	0.02248101
27	0x3ea0b775	0.31389967
28	0x3e02fd2b	0.12791888
29	0xbe975b7a	-0.2956198
30	0xbdf8c393	-0.12146678
31	0xbc1128c9	-0.008859822
32	0xbeaba549	-0.3352454
33	0x3cc91eb6	0.024550777
34	0xbf164f51	-0.5871478
35	0x3e406ba9	0.18791069
36	0x3f18d6a3	0.5970251
37	0xbe9bc27a	-0.3042181
38	0xbf2e44f7	-0.6807398
39	0x3db00f5d	0.0859668
40	0xbf50cb91	-0.8156062
41	0x3e333b38	0.17503059
42	0xbe7ade10	-0.24498773
43	0xbd7c7f28	-0.061644703
44	0xbd44db8a	-0.04806093
45	0xbe8ae62a	-0.27128726
46	0x3f18838b	0.5957572
47	0x3e400359	0.18751277
48	0xbe05c757	-0.13064323
49	0x3ef0451d	0.4692773
50	0x3e96f1cb	0.29481348
51	0xbbe514d1	-0.006991007
52	0xbf653ab3	-0.8954269
53	0x3f28eaad	0.65983087
54	0xbf089424	-0.53351045
55	0x3e2bc75b	0.16775267
56	0xbe4e7391	-0.20161273
57	0xbf037c4a	-0.51361525
58	0xbdf03629	-0.1172908
59	0xbebdb07a	-0.37048703
60	0xbebd3298	-0.36952662
61	0x3f304f30	0.6887083
62	0x3d0f2e03	0.03495599
63	0xbe79b301	-0.24384691
64	0x3f2912e5	0.66044456
65	0xbe53ec5f	-0.20695637
66	0x3d6d8074	0.05798383
67	0xbf1cd992	-0.61269486
68	0x3e8bfa4a	0.27339393
69	0xbe327af2	-0.17429712
70	0x3ebd1a83	0.3693429
71	0xbeaa295c	-0.3323468
72	0x3ea307da	0.31841928
73	0xbe26f66c	-0.1630494
74	0xbe7c45c9	-0.24635996
75	0xbe9edecd	-0.31029359
76	0xbe49cdeb	-0.19707458
77	0xbec2d8ad	-0.38055936
78	0x3c467a73	0.012114155
79	0xbe1d2ddf	-0.1534953
80	0x3f0752da	0.52860796
81	0x3e4ab1d3	0.19794397
82	0x3ee7c13f	0.45264623
83	0x3ed66cf6	0.41880006
84	0xbe2767a0	-0.16348124
85	0x3f2147bc	0.6300008
86	0xbec2d12b	-0.38050207
87	0x3dded684	0.10880759
88	0xbed7feea	-0.42186671
89	0x3cbb9f53	0.02290312
90	0x3e290cb6	0.16508755
91	0x3d3db5c0	0.04631591
92	0x3ecd5f9a	0.40112
93	0xbe8916e1	-0.26775268
94	0x3ea835d7	0.32853577
95	0xbeb9b10f	-0.36267897
96	0x3e6e3b53	0.23264818
97	0xbed82581	-0.42216113
98	0x3dd3cfa5	0.103423394
99	0xbd60bfef	-0.054870542
100	0x3d294578	0.041326016
101	0xbde599e7	-0.11210995
102	0xbd897744	-0.06712201
103	0xbe9c3c4c	-0.30514753
104	0xbe7502d2	-0.23926857
105	0x3e19591e	0.14975402
106	0xbd893e7c	-0.06701371
107	0x3e26af07	0.16277705
108	0xbe32faec	-0.17478532
109	0x3ed44b93	0.4146391
110	0x3eb8dce9	0.3610604
111	0xbe9a7558	-0.3016765
112	0x3dde1f77	0.10845845
113	0xbefe8250	-0.49708796
114	0x3d0e33ef	0.034717496
115	0x3e857901	0.2606888
116	0xbf36825c	-0.7129266
117	0x3eba87d1	0.36431745
118	0xbf152f0d	-0.5827492
119	0xbee55924	-0.4479457
120	0x3ea9c0fd	0.3315505
121	0x3ec19614	0.37809813
122	0x3c8f8a1e	0.017521914
123	0xbf1186b0	-0.5684614
124	0xbeac97ba	-0.33709508
125	0xbde5f2f0	-0.11227977
126	0x3e987565	0.29777065
127	0xbe258e6a	-0.16167608
128	0x3e38ac2e	0.18034431
129	0xbed9a42f	-0.42508075
130	0xbed64cfc	-0.4185561
131	0x3e57718f	0.21039413
132	0xbe397d3e	-0.18114182
133	0x3da2163c	0.07914397
134	0xbda62d8b	-0.081141554
135	0x3d6d707f	0.057968613
136	0x3e664d0a	0.22490326
137	0x3f26d917	0.65175
138	0xbde6c883	-0.11268713
139	0x3dfc7a85	0.12328056
140	0x3e9dc459	0.30813864
141	0x3da7fbd5	0.0820233
142	0x3e7483b2	0.23878363
143	0xbdca2eac	-0.09872183
144	0x3e3bec8b	0.18351953
145	0x3d743e7e	0.05962991
146	0xbed8198f	-0.42207
147	0xbe849840	-0.25897408
148	0xbef221b9	-0.47291353
149	0xbe9c2355	-0.30495706
150	0x3f5f724e	0.8728379
151	0x3e5bd161	0.2146659
152	0x3eaca8ba	0.33722478
153	0x3e153b2f	0.14573358
154	0x3e9db2bc	0.30800426
155	0x3efcfc62	0.49411303
156	0x3dadb434	0.08481637
157	0x3d214928	0.039376408
158	0xbe49d337	-0.19709478
159	0x3ecbd895	0.39813676
160	0xbe343677	-0.17598902
161	0xbe4abdcc	-0.19798964
162	0x3cf5c5f8	0.030001625
163	0x3d8a88bb	0.067643605
164	0xbee82d3c	-0.4534701
165	0x3f10aec0	0.5651665
166	0xbda895cd	-0.08231697
167	0x3e8808c4	0.26569188
168	0x3ed78767	0.4209549
169	0xbed21eb8	-0.41039062
170	0x3d19b4f1	0.037526075
171	0xbe64f855	-0.22360356
172	0xbddda0d5	-0.10821692
173	0x3ebce334	0.36892092
174	0x3cc5def2	0.02415416
175	0x3e4d261c	0.20034069
176	0xbed768d6	-0.4207217
177	0xbda87895	-0.08226124
178	0x3f03c217	0.5146803
179	0xbf6f4c69	-0.9347597
180	0xbf22e67c	-0.6363294
181	0x3ba181fd	0.004928826
182	0xbf3d774e	-0.7401017
183	0x3e90d780	0.28289413
184	0x3cb36854	0.021900333
185	0xbe5f6e82	-0.21819499
186	0x3efe8e7b	0.4971808
187	0x3e9158f5	0.2838818
188	0x3f09d0a1	0.5383397
189	0xbec8fdb0	-0.39256048
190	0xbf621577	-0.88314
191	0x3d912662	0.07087399
192	0xbe3cf2e1	-0.18452026
193	0xbeabc818	-0.33551097
194	0xbf499698	-0.7874541
195	0xbf39cedc	-0.7258127
196	0xbec437b6	-0.38323754
197	0xbd273169	-0.040818606
198	0xbe33ead4	-0.17570049
199	0xbedcbdd2	-0.4311357
200	0xbe8f7746	-0.28020686
201	0xbea666ba	-0.3250025
202	0xbe31e330	-0.17371821
203	0x3e96512e	0.2935881
204	0xbadcd4ec	-0.0016848124
205	0xbe024907	-0.1272317
206	0x3ea6693b	0.3250216
207	0x3e0d27d8	0.1378473
208	0xbe77f97a	-0.24216262
209	0x3ed912b5	0.42397085
210	0x3e06b4ba	0.13154879
211	0xbe7aa703	-0.24477772
212	0xbf2a8f48	-0.6662488
213	0xbf593e48	-0.8486066
214	0xbdcd4563	-0.10023
215	0xbf085de9	-0.53268296
216	0xbf3bd3af	-0.7336988
217	0xbeb18763	-0.34673604
218	0xbf1c934d	-0.61162263
219	0xbeae2ed2	-0.34020096
220	0xbe62bf2c	-0.22143239
221	0x3f09e1bd	0.53860074
222	0xbf725fb9	-0.9467731
223	0x3e0a1886	0.13485917
224	0xbd3c81e1	-0.0460223
225	0xbf4526b5	-0.7701219
226	0x3e622394	0.22083884
227	0x3e3e5028	0.18585265
228	0xbe9ac985	-0.30231872
229	0x3dc19a46	0.094532534
230	0xbee03dd1	-0.43797162
231	0xbf06f5ac	-0.52718616
232	0x3d93f7d9	0.072250076
233	0xbeabf099	-0.33582
234	0xbe45d75c	-0.19320434
235	0x3d8b6c5b	0.068077765
236	0x3f6e43da	0.93072283
237	0xbd9174e8	-0.07102376
238	0x3cf685a0	0.030093014
239	0xbe256eb6	-0.16155514
240	0x3e7b639b	0.24549715
241	0x3e0f3f56	0.13989004
242	0xbebf0c46	-0.3731405
243	0x3e953aab	0.29146323
244	0xbebc84e0	-0.36820126
245	0x3e7b488b	0.24539392
246	0xbf4bc7f0	-0.79601955
247	0x3eb7c90e	0.3589558
248	0xbe543770	-0.20724273
249	0xbec229b5	-0.37922445
250	0xbdf1d297	-0.11807745
251	0xbe0dde2a	-0.1385428
252	0x3cca4921	0.024693074
253	0xbf7c2633	-0.9849579
254	0x3f20d8a8	0.6283059
255	0x3edf3e36	0.4360215

layers.1.bias f4 [20]
0	0xbe937dca	-0.28806907
1	0x3b931f0e	0.004489786
2	0x3e32c820	0.17459154
3	0xbe744a32	-0.23856428
4	0xbe3757c8	-0.1790458
5	0xbdc686f8	-0.09693712
6	0xbce1bc6b	-0.027555665
7	0xbdc3bdbb	-0.095576726
8	0x3e7cff94	0.2470687
9	0xbe09970c	-0.13436526
10	0xbda7f710	-0.0820142
11	0xbdfcbed9	-0.12341089
12	0x3e2fd052	0.17169312
13	0x3e737e6e	0.23778698
14	0x3e60e3f2	0.21961954
15	0x3dd5fb9e	0.10448383
16	0x3ea6ed77	0.32603046
17	0x3ca6bde6	0.020354223
18	0x3c2aad44	0.010417286
19	0xbe24e7e9	-0.16104092

layers.2.weight f4 [20, 20]
0	0xbf0ef21a	-0.5583817
1	0x3e0eddd7	0.13951813
2	0xbe40a1c9	-0.18811716
3	0x3f966987	1.1750954
4	0x3d48c1f0	0.04901308
5	0x3ea00e88	0.31261086
6	0x3d470860	0.04859197
7	0x3d803885	0.0626078
8	0x3d902956	0.07039134
9	0xbf5112f5	-0.8166955
10	0x3d39196e	0.045190267
11	0xbe96d7ef	-0.2946162
12	0x3e755d30	0.2396133
13	0xbe140116	-0.14453539
14	0xbec9c7ce	-0.3941025
15	0xbf20ce91	-0.62815195
16	0x3e4cf519	0.20015372
17	0x3d731dd2	0.05935461
18	0xbf437356	-0.76347864
19	0xbee7d3aa	-0.45278674
20	0x3e502aa0	0.2032876
21	0xbea91b01	-0.33028415
22	0xbe0e5e2d	-0.13903113
23	0xbe9979f2	-0.2997585
24	0x3e7df74a	0.24801365
25	0x3ea938b7	0.33051082
26	0xbea5584c	-0.32293928
27	0xbc989067	-0.018623544
28	0x3d48e9f3	0.049051236
29	0xbec199c4	-0.37812626
30	0x3d8ae210	0.06781399
31	0xbf63eeb9	-0.89036137
32	0x3e40856b	0.18800895
33	0xbf03a334	-0.51420903
34	0x3edd4a96	0.43220967
35	0xbe2ae170	-0.1668756
36	0xbf00ea15	-0.5035718
37	0xbe76034c	-0.24024695
38	0x3da61ab9	0.08110566
39	0x3e8f2684	0.27959073
40	0x3f0cedec	0.5505054
41	0xbe2e9dba	-0.17052355
42	0x3e649e6d	0.2232606
43	0xbd7b3c69	-0.06133691
44	0x3e287d2b	0.16453998
45	0x3e0762d6	0.13221297
46	0xbce19e26	-0.027541231
47	0xbe21ac3c	-0.15788358
48	0xbead7e95	-0.33885637
49	0xbe50f28f	-0.20405029
50	0x3e0c2578	0.13686168
51	0x3de39e46	0.11114173
52	0xbe1595b5	-0.1460789
53	0x3e435245	0.19074352
54	0xbec00c81	-0.3750954
55	0x3e30008a	0.17187706
56	0xbedefbda	-0.43551522
57	0x3e0bea1c	0.13663524
58	0xbf0cd439	-0.55011326
59	0xbebaa2ae	-0.3645224
60	0xbe3364ba	-0.17518893
61	0x3e19240b	0.14955156
62	0x3e1f7368	0.15571368
63	0x3e54dbd6	0.20786986
64	0xbda68c36	-0.08132212
65	0x3ed591b4	0.41712725
66	0xbf24d88c	-0.64392924
67	0xbe00be9a	-0.12572709
68	0xbdbd2d13	-0.09237113
69	0x3e08abe5	0.13346823
70	0xbeeeb422	-0.46621805
71	0x3e863248	0.26210237
72	0xbe4bd63a	-0.1990594
73	0xbc9a3576	-0.01882432
74	0x3de51686	0.11185937
75	0x3ea47229	0.32118347
76	0x3d9634b0	0.07334268
77	0xbee05180	-0.4381218
78	0xbf016418	-0.50543356
79	0x3c8e6cc2	0.017385844
80	0x3ec6f899	0.3886154
81	0x3e4bebec	0.19914216
82	0x3d66eb07	0.056376483
83	0xbf99d7f3	-1.2019027
84	0x3e5d666e	0.21621105
85	0x3e308f89	0.17242254
86	0x3ed48856	0.41510266
87	0xbe6e2561	-0.23256446
88	0xbe58fc0c	-0.21189898
89	0x3e7dc241	0.24781133
90	0xbeaeaa7e	-0.3411445
91	0x3f007bcb	0.50188893
92	0x3f2b3cb0	0.66889477
93	0x3e0601d8	0.13086641
94	0x3e95f747	0.2929022
95	0x3e9926df	0.2991247
96	0xbf0d5636	-0.5520967
97	0xbee01975	-0.43769422
98	0x3f1464e1	0.5796643
99	0xbe47ca8c	-0.19510859
100	0x3e930d59	0.2872112
101	0xbe4033ca	-0.18769756
102	0xbeb85cfb	-0.36008438
103	0xbe7710c7	-0.24127494
104	0xbd9095fc	-0.07059857
105	0xbc166407	-0.009179122
106	0x3ecfc5be	0.40580553
107	0x3f50b365	0.81523734
108	0x3e03b0c5	0.12860401
109	0xbdf0d254	-0.11758867
110	0xbe051f84	-0.13000304
111	0xbbfd071c	-0.007721795
112	0xbcb13ff8	-0.021636948
113	0x3e9a6779	0.30157068
114	0x3f0fced0	0.56174946
115	0x3e7c9eab	0.24669902
116	0x3d886c90	0.06661332
117	0x3eb31a50	0.34981012
118	0xbe8879c1	-0.2665539
119	0x3e809036	0.25110024
120	0xbdcb92c9	-0.099401064
121	0xbe8a4c2f	-0.27011248
122	0xbf3a046e	-0.7266301
123	0xbe9e19aa	-0.30878955
124	0x3e83a354	0.25710547
125	0xbd96a6b2	-0.07356013
126	0xbb72414d	-0.0036965192
127	0x3ef3d397	0.47622368
128	0xbedc82a0	-0.4306841
129	0xbe4aa415	-0.19789155
130	0xbe892ef7	-0.26793644
131	0xbe4e80ca	-0.20166317
132	0xbe014b08	-0.12626278
133	0x3e7220d0	0.2364533
134	0xbe8ab8f7	-0.27094242
135	0xbe007848	-0.12545884
136	0x3e5d9a9d	0.21641012
137	0xbe8582d7	-0.26076385
138	0xbf0965f1	-0.53671175
139	0x3ecdd384	0.40200436
140	0xbce2b6c1	-0.027675034
141	0x3f28b379	0.65898854
142	0x3cc9cae7	0.024632884
143	0x3eaaa6f3	0.33330497
144	0xbd3eded7	-0.046599235
145	0xbf072df3	-0.5280449
146	0xbed09407	-0.40737936
147	0xbe02459e	-0.1272187
148	0xbe887e30	-0.26658773
149	0x3e179e6c	0.14806527
150	0xbe5ed047	-0.21759139
151	0xbf23287d	-0.63733655
152	0x3e297de8	0.16551936
153	0xbd99b897	-0.07505911
154	0x3f22cf27	0.6359734
155	0xbe444ffe	-0.1917114
156	0xbe5d22d9	-0.21595325
157	0xbe79141a	-0.24324074
158	0xbf2d791b	-0.6776292
159	0xbe9a2678	-0.30107474
160	0x3ed36c10	0.41293383
161	0x3e857e66	0.26072997
162	0x3eb6f2ac	0.3573202
163	0x3e9a3e7f	0.30125806
164	0x3f4ba4b7	0.7954821
165	0xbf128176	-0.5722879
166	0x3ebe378d	0.37151757
167	0x3ee232dc	0.44179428
168	0xbee74cfc	-0.45175922
169	0xbedd2b32	-0.43197018
170	0xbd7882f7	-0.060671773
171	0xbe9ce9d4	-0.30647147
172	0xbd497aeb	-0.04918949
173	0xbebe7ae0	-0.3720312
174	0xbd169514	-0.036763266
175	0x3cc66178	0.024216399
176	0x3e9f62f7	0.31130192
177	0xbe1aafc8	-0.15106118
178	0x3eb19fb6	0.34692162
179	0xbf668a06	-0.9005436
180	0xbf24a4d5	-0.64314014
181	0xbdf5969b	-0.11991616
182	0xbf1fa00b	-0.6235358
183	0x3de71d4d	0.112848856
184	0xbea830be	-0.32849687
185	0x3f2c0dbe	0.6720847
186	0xbe23c6b1	-0.15993764
187	0xbd701a9a	-0.05861912
188	0xbee01557	-0.4376628
189	0x3f17f8ea	0.5936419
190	0xbef94629	-0.4868634
191	0xbe11fa38	-0.14255607
192	0x3e100ca7	0.14067326
193	0xbdd7090c	-0.104997724
194	0x3e0667df	0.13125561
195	0x3d3d35d9	0.04619393
196	0x3e4e0737	0.2011994
197	0xbef33f0a	-0.47509032
198	0xbe001267	-0.1250702
199	0xbbcd4b53	-0.006265083
200	0x3e558eab	0.20855205
201	0xbbdd8025	-0.006759661
202	0xbe90d877	-0.2829015
203	0xbd373016	-0.044723593
204	0xbd98e607	-0.07465749
205	0xbe884413	-0.26614437
206	0xbc30e309	-0.010796317
207	0x3f00a1fe	0.5024718
208	0xbe0e9bf1	-0.13926674
209	0xbec7d665	-0.39030758
210	0xbf048cbf	-0.5177726
211	0x3e513682	0.2043095
212	0xbea24bd0	-0.31698465
213	0x3ecd275e	0.40069097
214	0xbf0ba432	-0.5454742
215	0x3de2e417	0.11078661
216	0xbe8475ff	-0.25871274
217	0xbec2b9aa	-0.38032275
218	0x3d120074	0.035644963
219	0xbeb68144	-0.35645497
220	0xbea6d8b9	-0.3258722
221	0x3e8f5e0a	0.28001434
222	0xbe8353cf	-0.25649878
223	0xbedf667b	-0.43632874
224	0xbe35ba33	-0.1774681
225	0x3eaab363	0.33339986
226	0x3d0a6518	0.033787817
227	0x3f30a372	0.689994
228	0x3bc61d94	0.0060460065
229	0xbf344631	-0.70419604
230	0xbea6fc56	-0.32614392
231	0x3de744d8	0.11292428
232	0x3d60bbd2	0.05486662
233	0xbdfc8c9a	-0.12331505
234	0x3dfe9075	0.12429897
235	0xbeb1bc17	-0.34713814
236	0xbdc3990b	-0.09550675
237	0x3dbf042a	0.09326966
238	0x3eb69774	0.35662425
239	0xb9801708	-0.00024431222
240	0xbf944b92	-1.1585562
241	0xbdc4a203	-0.09601214
242	0x3e8d0f3a	0.2755068
243	0xbf4988d7	-0.78724426
244	0x3e6c1e94	0.2305854
245	0x3ec544c4	0.38529027
246	0xbd7c0420	-0.06152737
247	0xbef466d5	-0.47734705
248	0xbe89df4f	-0.26928183
249	0x3ed5e53d	0.41776457
250	0x3f3761bc	0.71633506
251	0xbca7943b	-0.020456424
252	0x3e7b8b93	0.24564962
253	0xbdda27ee	-0.10652147
254	0xbea7ce06	-0.3277437
255	0x3e8f6dbf	0.28013417

layers.2.bias f4 [20]
0	0x3d6ffef1	0.05859274
1	0x3d5277ef	0.05138391
2	0xbd62e810	-0.055397093
3	0xbe0a0910	-0.1348002
4	0xbd488f23	-0.04896463
5	0xbdc5fa79	-0.096669145
6	0xbc6f353f	-0.014600097
7	0x3d726055	0.0591739
8	0xbe372d7c	-0.17888445
9	0x3e40ca97	0.18827282
10	0x3e10ab9a	0.14127961
11	0xbe2ee4ed	-0.17079516
12	0x3d1381c6	0.036012433
13	0xbdeb23c2	-0.1148143
14	0x3e5327cc	0.2062065
15	0xbd757a91	-0.05993134
16	0xbcc19980	-0.023632765
17	0xbdae92d6	-0.085241005
18	0xbda4e035	-0.080505766
19	0x3e383f32	0.17992857

layers.3.weight f4 [1, 20]
0	0xbcbfe342	-0.023423795
1	0x3dcc63ba	0.09979959
2	0x3e856972	0.2605701
3	0x3e3bd796	0.18343958
4	0xbcec6fdf	-0.028861938
5	0xbe00b503	-0.1256905
6	0x3e9319c5	0.28730598
7	0x3e36b09c	0.17840809
8	0xbecfdfa4	-0.40600312
9	0x3d8f5588	0.06998736
10	0x3c97bcf6	0.01852272
11	0xbd59d2ac	-0.053179428
12	0x3dc1f3f8	0.094703615
13	0xbca5fb41	-0.020261409
14	0xbe36d9f0	-0.17856574
15	0x3eae5d6e	0.34055656
16	0x3e018cc3	0.12651353
17	0xbd503e18	-0.050840467
18	0xbce2c7a7	-0.027683092
19	0xbdf371ac	-0.118869156
