01_pure_bend_rand/GPU/net_u_20240704_094257.pth (torch, 5569 bytes, 11 tensors)

layers.0.weight f4 [10, 2]
000000 64 06 09 bf e2 fe 1d be f8 17 1f c0 89 a8 b7 3d
       -0.53525376 -0.15429261 -2.485838 0.089676924
000010 e4 c4 dc be eb e5 42 3f a0 11 2d 40 b9 f1 b3 3f
       -0.43118966 0.76132077 2.7042007 1.4058143
000020 7a 11 c9 3e 03 6f b4 3e a7 f7 74 3e 96 e3 f6 3f
       0.39271146 0.35240945 0.23922597 1.9288204
000030 60 8b ef be d0 c8 2b bf 2b 75 81 bf ce e7 21 3f
       -0.46786022 -0.6710329 -1.0113882 0.6324433
000040 ff b0 95 bf 5f c8 46 3d f8 d3 3f be 6b 29 18 bf
       -1.169464 0.048530933 -0.18733203 -0.594382

layers.0.bias f4 [10]
000000 39 c4 d7 3e aa 67 5c be b9 39 8f be 89 a1 90 3f
       0.42141894 -0.2152392 -0.27973726 1.1299297
000010 92 57 f9 be 55 d8 27 3e 69 ff 59 be 4b f2 a0 bf
       -0.48699623 0.16391118 -0.21288837 -1.2573942
000020 d3 d0 d5 3e 0b ec d7 3d
       0.41760883 0.105430685

layers.1.weight f4 [10, 10]
000000 df 71 24 bd 0e 55 15 3e 29 fb 6f bf ca 85 6f be
       -0.04014766 0.14583227 -0.93742615 -0.2339088
000010 03 69 6d 3e 55 c1 7a be 02 be 84 3e 27 df 93 3e
       0.2318459 -0.24487813 0.25926214 0.2888119
000020 c7 d7 27 be 71 8a f7 3d 4d 05 65 be d3 2d b4 bd
       -0.16390906 0.120869525 -0.22365303 -0.08797803
000030 c4 b2 9b 3e 06 05 41 be 28 34 11 bf 43 1d dc be
       0.30409825 -0.18849573 -0.5672021 -0.42991075
000040 2a 1b 57 3e 9f 33 67 3f 4a 21 af be 9b 75 6c 3e
       0.21006456 0.9031314 -0.34205085 0.23091738
000050 95 97 32 bf df 54 6e be 95 b6 41 3f 3f 1d 60 bf
       -0.69762546 -0.23274563 0.75669223 -0.87544626
000060 12 05 81 3f a9 e3 db be 13 bf 52 be d7 57 5d 3f
       1.0079672 -0.42947128 -0.20580702 0.8646216
000070 1e 15 26 bf 15 7e 31 bd cd 36 05 bf 39 e5 ea be
       -0.6487597 -0.04333313 -0.52036744 -0.45878008
000080 89 4e b3 bd f7 67 5a bf 96 10 19 3e b1 66 80 3e
       -0.08755214 -0.8531489 0.14947733 0.25078347
000090 e2 27 ed bd a7 43 44 3f 79 07 bf bd 77 54 17 3d
       -0.11579873 0.7666573 -0.09327597 0.036945786
0000a0 82 c5 a7 be 21 bd 8f 3e 62 31 15 be 24 63 d6 3d
       -0.32767874 0.2807398 -0.1456962 0.10468128
0000b0 08 1c 6a bf eb 34 bd be 61 c4 a1 be 4f 19 07 bf
       -0.9144902 -0.36954436 -0.31595138 -0.5277299
0000c0 a0 75 3d 3f 44 d0 5f bf 56 4e 84 bb d7 f4 28 3f
       0.74007607 -0.87427163 -0.0040376587 0.65998596
0000d0 54 92 d9 3e 88 fe 91 be c1 ed 84 3d 6e 78 6b be
       0.42494452 -0.28514504 0.064906605 -0.22995159
0000e0 3d 3f 73 bf 53 9f dd 3f 96 92 a0 bd 84 18 01 be
       -0.9501837 1.7314247 -0.07840459 -0.12607008
0000f0 7c d4 01 be 19 77 25 3e ac fa 2f bf b4 08 a9 bd
       -0.12678713 0.16158713 -0.6874187 -0.08253613
000100 99 fa 3f bf 76 72 cf be 27 c9 40 be e0 b9 6c be
       -0.74991757 -0.40517014 -0.18826734 -0.2311778
000110 7d a9 aa be 98 81 7b 3f 7b a2 63 be ce 3a 80 3e
       -0.33332434 0.9824462 -0.2222995 0.25044864
000120 6d 84 33 3f 80 c3 96 3e 22 2b 5a bd 57 b4 8f 3e
       0.7012394 0.2944603 -0.05326379 0.28067276
000130 b7 2a 79 bf e2 29 93 3e 67 20 85 bf 3d d0 51 3e
       -0.973308 0.28742892 -1.0400513 0.20489593
000140 e1 e6 47 be 11 bb ed be ee 14 c4 bd 0b d7 f1 3e
       -0.19521667 -0.46431783 -0.095743045 0.47234377
000150 01 61 97 be c2 ed 60 3e b6 df 23 bf 7b 1c 3a bf
       -0.29566196 0.21965697 -0.6401323 -0.7269971
000160 4c e2 37 3f 86 43 55 bd 0c 1a 38 bf 1f c3 1b 3e
       0.71829677 -0.05206635 -0.71914744 0.15211152
000170 09 04 55 3f dc bb 2d be 61 6e 64 be 82 fb 08 3f
       0.8320928 -0.16966194 -0.22307731 0.5350877
000180 1d 97 f2 3e 90 19 82 be 6f be eb 3c 0a b8 11 3e
       0.47380915 -0.25410128 0.02877733 0.14230362

layers.1.bias f4 [10]
000000 0b b5 ab be 4b 94 83 be 93 17 09 bf a5 fe e5 3c
       -0.33536562 -0.25699076 -0.53551596 0.028075526
000010 71 d4 02 be 11 85 d0 be 53 91 5c 3e 43 49 06 3c
       -0.12776352 -0.40726522 0.21539812 0.008196178
000020 9a d4 a5 3e b5 12 8e bb
       0.32388765 -0.004335726

layers.2.weight f4 [10, 10]
000000 22 df 16 bf 44 ea 71 be 23 e3 a7 be 90 36 9a be
       -0.58934224 -0.23624521 -0.3279048 -0.30119753
000010 58 2d 1a 3e 9d 76 69 be 5d 10 22 bf 66 76 c4 3e
       0.1505636 -0.22799154 -0.6330622 0.3837158
000020 a2 9f 16 3e b4 fc 73 3d 54 2e 28 bf 40 0c fa be
       0.14709333 0.05956717 -0.6569569 -0.4883747
000030 2d 17 f6 be 17 44 f0 3e d6 6b 0d 3e 90 06 f9 be
       -0.48064557 0.46926948 0.13810667 -0.4863782
000040 1b 7d 28 be 77 ed 0b 3f d6 33 52 3f 1c b1 87 bf
       -0.16453974 0.5465922 0.82110345 -1.0600924
000050 cb 7d 13 3f 7b 21 de 3e 04 41 06 3f 02 30 78 bc
       0.5761382 0.4338492 0.52442956 -0.015148165
000060 47 64 0e 3f c3 7c a4 3f 62 52 e1 3d 2f 1b c3 3e
       0.5562176 1.2850574 0.110020414 0.38106677
000070 70 c0 4b bd d1 7c ba 3c 57 62 c8 ba 7d 23 2d 3d
       -0.04974407 0.022764595 -0.0015288097 0.042270172
000080 17 2a 82 3f c0 b3 c3 3e 3d 57 fe be f3 14 b0 bd
       1.0169095 0.38223076 -0.49675933 -0.08597746
000090 60 66 29 be ff e2 8c 3e 4f 5c 0e bc 93 eb ba bd
       -0.16542959 0.27516934 -0.008689 -0.091269635
0000a0 e5 0e 20 bf 0f dd 07 bf 0f e4 89 be 56 2f 32 be
       -0.6252273 -0.53071684 -0.26931807 -0.1740087
0000b0 91 ef 12 bf c1 9c c9 bd f9 80 98 bf eb f3 1b be
       -0.573968 -0.098443516 -1.1914359 -0.15229766
0000c0 c2 fd 23 be 8b 34 ec 3d ae b3 0c 3f f5 38 d7 ba
       -0.1601477 0.11533459 0.5496167 -0.0016420173
0000d0 f6 0a b6 3e a2 7d b0 be b2 5f a2 be b2 6b e1 be
       0.35555238 -0.3447085 -0.31713635 -0.44027478
0000e0 bd 03 50 bf c0 a2 64 be f2 34 bd be 40 84 1c bf
       -0.81255704 -0.22327709 -0.36954457 -0.611393
0000f0 46 5c 9f 3f 11 23 2c 3f 6f 1b a4 bc 57 46 0d 3f
       1.2450035 0.6724101 -0.020032613 0.55185455
000100 eb 75 fd be bc 63 67 3d 04 b9 1a 3f 50 49 4e be
       -0.49504027 0.0564916 0.6043856 -0.20145154
000110 f8 0d 85 bf c9 fe 46 3e c9 2d 37 bf 89 34 07 3f
       -1.0394888 0.1943313 -0.7155424 0.5281454
000120 18 74 da 3e 82 a1 ba 3d 85 57 3e 3e 8e 6a 71 3e
       0.42666698 0.091128364 0.18588074 0.23575804
000130 b9 9b a2 bf 86 f1 4f 3f cd 08 72 bf f5 99 19 3f
       -1.2703773 0.8122791 -0.9454468 0.60000545
000140 02 80 ec be 20 f4 28 bc c6 b0 14 bf a7 cf 70 be
       -0.46191412 -0.01031211 -0.58082235 -0.23516713
000150 11 21 9c 3e 01 e6 37 3f a3 f5 10 3f 96 cc 29 3e
       0.30493978 0.71835333 0.5662481 0.1658195
000160 fa af 63 3f 00 6e 1a bd 19 96 07 3f 0f 58 91 be
       0.88940394 -0.03770256 0.52963406 -0.28387496
000170 ec 5f 09 3f 97 bd 83 be 3d 4c dd bc 54 2b 9c 3e
       0.5366199 -0.25730583 -0.027013892 0.30501807
000180 7f 8e ab bf 0d 86 b2 3e 78 23 d0 be f0 ba a5 be
       -1.3402861 0.34867898 -0.4065206 -0.32369184

layers.2.bias f4 [10]
000000 82 cb c6 3d b3 30 b6 3e 79 b1 d0 3c 4f ff 4e bd
       0.09706785 0.3558403 0.02547525 -0.05053645
000010 cf 7f ab bd 9b b5 93 bc d1 36 fa bd 57 02 5f 3e
       -0.08373987 -0.018030932 -0.12217487 0.21778236
000020 aa d0 4b 3e 19 c5 cb bd
       0.19903818 -0.09949703

layers.3.weight f4 [10, 10]
000000 27 b0 6b bf ee 82 47 3f b4 92 c5 be 62 d1 2c bf
       -0.9206566 0.7793416 -0.38588488 -0.6750699
000010 1f 5f 13 3f 45 57 6a bc 9b ef 40 3d 5e fe dd bd
       0.5756702 -0.014303033 0.047103506 -0.10839532
000020 d1 1f b0 be 0c f3 57 be ed e3 8e 3d e6 a2 9b 3e
       -0.34399274 -0.21088809 0.06977067 0.3039772
000030 1d 0c 04 bf 76 0e dc be b7 32 eb be 34 51 88 3f
       -0.51580983 -0.42979783 -0.4593713 1.0649781
000040 1e 4d da 3d 23 54 98 3d 6e 50 01 bf 5d df bc 3e
       0.1065924 0.07437923 -0.5051335 0.36889163
000050 09 23 93 3e f4 df e7 3e 25 ed 9b 3e bb c1 4c bf
       0.28737667 0.4528805 0.30454364 -0.7998311
000060 e5 35 b4 be dd 5f 09 be 45 7a a4 3e 13 21 7c be
       -0.35197368 -0.13415475 0.32124534 -0.24621992
000070 90 91 57 be 51 5c 48 bd f0 be 48 3f bc 63 15 bf
       -0.21051621 -0.048916165 0.7841635 -0.5835531
000080 04 0c 30 3f da 7d 6f 3e 8a 0b 07 bf 95 f1 91 bd
       0.68768334 0.23387852 -0.5275198 -0.07126156
000090 57 ec a1 be 7c 21 8b bc 2d e8 90 3d 42 ab d3 be
       -0.31625625 -0.01698374 0.07075534 -0.41341597
0000a0 d4 eb ee be 1e 87 ba be 89 b6 1b bf 96 f0 d9 3e
       -0.46664298 -0.3643121 -0.608254 0.42566365
0000b0 7d be d6 3e 74 6a 13 3f aa 7c 0a bf c2 13 cc be
       0.41942206 0.5758431 -0.5409647 -0.39858824
0000c0 4d ac e9 bd b6 57 15 bf ba af f6 3e fa 6d f2 bd
       -0.11409817 -0.5833696 0.48180944 -0.118373826
0000d0 f0 38 39 3e 07 ff f9 3d 88 e4 a7 3e a1 a3 da 3d
       0.18088126 0.12206846 0.32791543 0.10675741
0000e0 de 6c 4a bf 92 70 8b be 24 36 0f bf 4d 32 4d bf
       -0.7907237 -0.27234322 -0.5594199 -0.8015488
0000f0 32 2b 0f be db d1 85 3f 07 ed 40 be f9 47 54 3f
       -0.13981321 1.0454668 -0.18840419 0.8292232
000100 9b 83 6c bf d3 6e 6b bf fc 17 41 3f f7 4a b5 be
       -0.92388314 -0.9196598 0.7542722 -0.35408756
000110 22 b5 42 3f fb 99 76 3e 00 fb f7 3d 14 90 1c bf
       0.76057637 0.24082176 0.12108421 -0.61157346
000120 09 8d b9 3c 0b 6e 1c 3e 19 b4 15 3e 1a 8a e8 3e
       0.022650259 0.15276353 0.14619483 0.45417863
000130 e5 0a 37 bc f8 d3 1b 3f fa ab f4 3d 78 32 4a 3e
       -0.011172031 0.60870314 0.119468644 0.19745815
000140 9a 0f 01 3e c2 57 39 3f 75 71 41 3f 65 d1 0b 3f
       0.12603608 0.7239953 0.75563747 0.54616386
000150 af 93 a0 bf c8 43 a1 bd 3c c7 98 3d 1a 89 62 bf
       -1.254507 -0.07874256 0.07459876 -0.8849045
000160 2b f8 01 bc 1d 02 98 bf 57 ec ee 3e 59 a6 93 bd
       -0.007932703 -1.1875645 0.46664688 -0.07209463
000170 e7 b2 bc bf f7 8f 8f 3e bc b6 cd 3e 51 5d 57 3f
       -1.4742097 0.28039524 0.40178478 0.84126765
000180 40 33 5b 3c 94 fa 59 bf e5 cf ea 3e 30 5a 22 be
       0.013378918 -0.85147977 0.45861736 -0.15854716

layers.3.bias f4 [10]
000000 f3 82 9b 3e 80 81 bb be 3c 31 b5 3e 0f 1d 94 bc
       0.30373344 -0.36622238 0.35389125 -0.018080262
000010 38 8d 00 be 1e 56 28 3a 36 fa b3 bd b8 f8 c6 be
       -0.1255387 0.0006421524 -0.08787958 -0.38861632
000020 36 ff 8f be db aa 96 3e
       -0.28124398 0.29427227

layers.4.weight f4 [10, 10]
000000 3d 16 4a 3f 26 03 45 bf 0d a1 1b bf 23 13 35 bf
       0.7894018 -0.7695793 -0.6079262 -0.70732325
000010 68 ff c7 3e 1d 29 ec be 48 3c 9a be e8 1a 0e 3f
       0.39062047 -0.46125117 -0.30124116 0.55509806
000020 e2 cf 05 bf 41 cc 7a 3e f3 89 c1 be b8 12 13 3f
       -0.5227033 0.24491979 -0.3780056 0.5745044
000030 3f 27 59 bf 1f b5 71 be 40 fd 34 be 68 c9 1d 3e
       -0.8482551 -0.23604248 -0.17674732 0.15408862
000040 08 85 ae be 74 66 ee 3e 66 bf 55 3f 39 d5 87 bf
       -0.3408587 0.4656254 0.83495176 -1.0611945
000050 64 bc b2 bc d5 89 09 3f 27 40 28 bf 67 ed 24 3e
       -0.021818347 0.5372594 -0.6572289 0.16106187
000060 09 51 0b bf db 0d 06 bf d0 d8 0b 3f 22 15 b0 3e
       -0.54420525 -0.5236489 0.54627705 0.34391123
000070 60 0c cf be 81 c9 1f be 50 2b ec 3e ec d5 7a bf
       -0.4043913 -0.15604211 0.46126795 -0.9798267
000080 99 81 ea bd a1 ad ee bd 46 b4 09 bf b8 4d b0 3e
       -0.114505 -0.11654211 -0.537907 0.34434295
000090 5e 31 17 be 5f b0 7f be c5 55 7d be 90 56 bd 3d
       -0.14764926 -0.24969624 -0.2473975 0.09245026
0000a0 7c f8 27 be 44 26 22 bf 68 25 1e 3f bf 06 e1 be
       -0.16403383 -0.6333964 0.6177583 -0.4395046
0000b0 3b c7 f2 3e 0c 55 79 3e 30 80 4a be 54 fd 7e 3e
       0.47417626 0.24348849 -0.19775462 0.24901325
0000c0 ae fd 83 be 8f eb 8e 3f 46 62 8f bd a6 88 29 be
       -0.2577948 1.1165637 -0.07001166 -0.16556033
0000d0 5d a9 a4 3e 19 2f 58 3f 9d 1a d1 bd d4 89 6e bd
       0.32160464 0.84446865 -0.10210154 -0.058236912
0000e0 b7 64 8f 3e cc a3 69 3f f1 ed 0f 3c 0e c2 04 be
       0.28006527 0.9126556 0.008784757 -0.12964651
0000f0 40 85 b4 bf 26 37 ab 3d 18 b9 03 be be a2 a5 3e
       -1.4103165 0.08360128 -0.12863576 0.32350725
000100 90 8c c8 3d e6 b5 5e 3f 23 8a c3 3c 4c c0 59 3e
       0.09792435 0.86996305 0.02386958 0.21264762
000110 3f a2 8b be d2 1d 83 be c5 df 06 3f 57 2e 86 bf
       -0.2727222 -0.2560869 0.52685195 -1.0482892
000120 c0 7a 41 3e 67 87 98 be 16 6b a5 be 08 71 a0 3c
       0.18894482 -0.29790804 -0.32308263 0.019585148
000130 87 ff ec 3e ee 84 dd be a4 51 b8 3e de 62 18 3f
       0.46288702 -0.4326548 0.35999787 0.5952586
000140 36 90 0c 3f 6f 6f 76 3f 74 0d 84 bf 4e a2 61 be
       0.5490755 0.96263784 -1.0316606 -0.2203457
000150 34 cd 21 3e 0a b9 be be 3c 20 cc be 96 7d 73 3e
       0.15800935 -0.3725055 -0.39868343 0.23778376
000160 d0 00 e8 3d 56 6b f5 bd 94 49 f9 3e 25 91 a1 bf
       0.1132828 -0.11983363 0.48688948 -1.262242
000170 95 3d 49 bf f0 1e e0 3d af 5d 86 be 16 5f ee be
       -0.7860959 0.10943401 -0.2624335 -0.4655692
000180 8b 47 f5 3e b2 30 a8 be 12 8a dd be b9 4e 74 be
       0.47906145 -0.32849652 -0.43269402 -0.23858155

layers.4.bias f4 [10]
000000 e3 af 88 3e 50 0f 21 bd ee f1 2c bd eb 4f 84 bd
       0.2669669 -0.039321244 -0.04222291 -0.06460556
000010 f2 05 a9 3d 3f b7 00 3e 94 04 97 3e 7b c1 34 be
       0.08253087 0.12569903 0.2949568 -0.17651932
000020 5f ac 69 3e 7c 9d 52 be
       0.2281966 -0.20567888

layers.5.weight f4 [1, 10]
000000 5c 47 d3 3c 60 2a 1d 3c ba 7f 42 3e b9 a2 1d 3f
       0.025790863 0.0095926225 0.18994036 0.6157642
000010 16 55 e7 3e e2 17 e3 be 8b 7f ab 3e c8 a3 e3 be
       0.45182103 -0.4435416 0.33495745 -0.44460893
000020 e7 ad 3d 3b c0 68 16 3f
       0.0028942765 0.58753586
