01_pure_bend_rand/GPU/net_v_20240704_094257.pth (torch, 5569 bytes, 11 tensors)

layers.0.weight f4 [10, 2]
1.1653275 0.63978344 -0.33767608 -0.3879184 -0.40727597 0.09716509 1.0064996 -0.1710648
0.6587116 1.0452669 -0.36267605 -1.224956 -0.69933105 -1.4095347 0.41693947 0.6687165
0.5997167 -0.52544343 0.20674106 -0.031829435
00000000: 7429 953f d9c8 233f e1e3 acbe 3e9d c6be
00000010: 7a86 d0be 7efe c63d fbd4 803f 9c2b 2fbe
00000020: 53a1 283f 4ecb 853f adb0 b9be 5ccb 9cbf
00000030: 5c07 33bf a26b b4bf 1779 d53e 0131 2b3f
00000040: 0987 193f 7683 06bf eeb3 533e 955f 02bd

layers.0.bias f4 [10]
-0.062001158 0.88620025 -0.18272886 -0.67915034 -0.72283745 -0.64302564 -0.7743242 -0.035589833
-0.3846839 -0.80247086
00000000: edf4 7dbd 05de 623f 461d 3bbe ccdc 2dbf
00000010: e00b 39bf 549d 24bf 1c3a 46bf a5c6 11bd
00000020: 4af5 c4be bb6e 4dbf

layers.1.weight f4 [10, 10]
0.23600781 -0.1011666 -0.41308448 -0.56093585 -0.078122534 -0.27948794 -0.37199357 0.18035062
1.0627425 -1.0605344 -0.7771036 0.14196785 0.55134463 0.34894302 0.038014658 -0.037227858
0.5013594 -0.13842207 -0.47182536 0.5017439 -0.90109783 -0.2767386 0.44216573 0.01675948
0.21119708 -0.45635617 0.11326161 1.0331373 -0.3544856 0.36835873 0.70328957 -0.55331826
0.41699788 -0.116480954 -0.04350404 0.9997986 0.587499 -0.08953251 0.7713732 0.79304487
-0.29036978 -0.3875527 0.16032903 0.7444002 -0.06247354 -0.29892868 1.0365554 0.41379067
0.10856956 -1.0679406 0.62427497 0.38334864 0.13010414 -0.32627052 -0.2962734 -0.34362352
-0.25638232 1.4122936 -0.4800789 -0.55651504 0.17688964 -0.33461228 -0.5422593 0.056263268
0.22092943 0.24537575 0.12011757 0.093406335 0.47194746 -0.486975 -0.6204601 0.6505327
0.37361693 -0.23882578 -0.185828 -0.31223607 -0.18898135 0.43203992 0.4147021 -0.8107358
-0.252086 -0.34494838 -0.8242238 0.12718967 0.5689474 0.3675935 0.72906023 -0.43092805
0.034917604 0.50790346 -0.496312 -0.08585043 -0.29502034 -0.3462976 0.1640497 -0.57103395
-0.54915524 0.583989 0.05288108 0.18607786
00000000: 08ac 713e 6f30 cfbd cf7f d3be 7e99 0fbf
00000010: b5fe 9fbd 0b19 8fbe f175 bebe d5ad 383e
00000020: f207 883f 97bf 87bf 43f0 46bf 0560 113e
00000030: ec24 0d3f a9a8 b23e 42b5 1b3d 3d7c 18bd
00000040: 1759 003f 84be 0dbe 1893 f1be 4a72 003f
00000050: 59ae 66bf afb0 8dbe 8c63 e23e 2d4b 893c
00000060: 0c44 583e 84a7 e9be b4f5 e73d d83d 843f
00000070: 237f b5be 8499 bc3e c90a 343f 44a6 0dbf
00000080: bf80 d53e 918d eebd 4b31 32bd cdf2 7f3f
00000090: 5666 163f d25c b7bd b778 453f fd04 4b3f
000000a0: 59ab 94be 4f6d c6be 4b2d 243e 0391 3e3f
000000b0: 41e4 7fbd 2e0d 99be d9ad 843f 5fdc d33e
000000c0: b859 de3d 47b2 88bf 7cd0 1f3f 4646 c43e
000000d0: 053a 053e ee0c a7be 26b1 97be 6cef afbe
000000e0: 8b44 83be 09c6 b43f e7cc f5be c577 0ebf
000000f0: 8f22 353e 4d52 abbe 81d1 0abf 5074 663d
00000100: 533b 623e c843 7b3e 3300 f63d d24b bf3d
00000110: 19a3 f13e ca54 f9be 79d6 1ebf 5089 263f
00000120: b84a bf3e bf8e 74be b249 3ebe 68dd 9fbe
00000130: 5484 41be 5634 dd3e d553 d43e 628c 4fbf
00000140: 6b11 81be 139d b0be 5500 53bf 023e 023e
00000150: 89a6 113f 3735 bc3e b1a3 3a3f 9aa2 dcbe
00000160: c305 0f3d f605 023f 9b1c febe 5ad2 afbd
00000170: e80c 97be eb4d b1be a5fc 273e 482f 12bf
00000180: 7095 0cbf 4e80 153f d599 583d 328b 3e3e

layers.1.bias f4 [10]
-0.06661965 -0.49649313 -0.14105153 -0.017717574 -0.3961642 0.37177724 -0.28400016 -0.0013166699
0.1264462 0.27439603
00000000: e26f 88bd 5934 febe d06f 10be 7224 91bc
00000010: 09d6 cabe 9659 be3e 7868 91be 1c94 acba
00000020: 1d7b 013e a37d 8c3e

layers.2.weight f4 [10, 10]
0.6380096 -0.44067565 0.38519368 -0.19755694 -0.8947481 0.5193217 -0.20372236 0.41374257
-0.9045893 0.3270966 -0.56685305 0.17940073 -0.36775094 0.61095446 0.14617103 0.043774374
0.05991595 0.49288177 0.96594083 -0.38756788 0.039572448 -0.41437033 -1.0762473 0.60845923
0.6265705 0.5037173 -0.38385567 0.542952 -0.71034616 0.07454358 -0.21420552 0.24732126
0.58994865 0.18651848 -0.4459928 -0.20812759 0.609982 -0.34390548 0.6312205 -0.46009523
0.81108636 -0.13714992 -0.90096885 -0.5982904 0.5011498 -0.0726967 -0.25417715 -0.014168471
-0.25675526 -0.18899128 -0.3966213 -0.18314554 0.6448023 0.6160583 0.10081691 -0.28884247
0.43046677 -0.3538693 0.14274758 -0.2018765 -0.47427472 -1.1761734 0.2097822 -0.64972323
0.42987502 -0.37301785 -0.1952552 0.6309943 0.18321793 0.37045372 0.26277012 -0.51953447
0.7890838 0.16248813 -0.16920787 -0.12723188 -0.8902816 0.045767788 -0.07716724 -0.016000902
0.3510877 -0.44142142 -0.114007816 -0.011019827 0.47561732 -0.886024 0.36459285 -0.396686
-0.0016497765 0.071246766 0.08451264 0.70526254 0.24546823 -0.27363494 0.10818129 1.4198618
0.19700529 -0.39045498 1.0670003 0.46935913
00000000: 9954 233f 3da0 e1be 1b38 c53e 5e4c 4abe
00000010: 360e 65bf 44f2 043f 989c 50be 11d6 d33e
00000020: 2a93 67bf 3579 a73e 481d 11bf d3b4 373e
00000030: da49 bcbe 8367 1c3f dcad 153e c24c 333d
00000040: 6d6a 753d 005b fc3e e647 773f 4c6f c6be
00000050: b816 223d 5928 d4be 79c2 89bf fcc3 1b3f
00000060: ed66 203f 9ef3 003f bb88 c4be e7fe 0a3f
00000070: 3fd9 35bf 4eaa 983d b158 5bbe c941 7d3e
00000080: e006 173f b3fe 3e3e 2b59 e4be 661f 55be
00000090: c827 1c3f 6114 b0be ab97 213f 9a91 ebbe
000000a0: 5ba3 4f3f 0771 0cbe e5a5 66bf 8f29 19bf
000000b0: 5a4b 003f 02e2 94bd 8223 82be e022 68bc
000000c0: 6d75 83be ee86 41be f211 cbbe 818a 3bbe
000000d0: c311 253f ffb5 1d3f 1979 ce3d 29e3 93be
000000e0: 2466 dc3e 5b2e b5be 6c2c 123e b7b8 4ebe
000000f0: 23d4 f2be da8c 96bf 25d1 563e 4354 26bf
00000100: 9418 dc3e 32fc bebe fbf0 47be d888 213f
00000110: 7b9d 3b3e 1cac bd3e ce89 863e 3600 05bf
00000120: 6501 4a3f 4a63 263e d444 2dbe 1349 02be
00000130: 7fe9 63bf 0177 3b3d dc09 9ebd 5314 83bc
00000140: c4c1 b33e fd01 e2be ee7c e9bd 818c 34bc
00000150: 1d84 f33e 78d2 62bf eaab ba3e 6d1a cbbe
00000160: 503d d8ba d3e9 913d f714 ad3d 168c 343f
00000170: 065c 7b3e e119 8cbe 278e dd3d 08be b53f
00000180: c1bb 493e b7e9 c7be 7793 883f d74f f03e

layers.2.bias f4 [10]
0.2340456 -0.250653 -0.09359894 0.016645784 -0.15487549 -0.36524704 0.1832199 0.19590898
-0.31798196 0.16905518
00000000: a6a9 6f3e 9755 80be cdb0 bfbd bd5c 883c
00000010: ae97 1ebe a901 bbbe ff9d 3b3e 5d9c 483e
00000020: 88ce a2be cd1c 2d3e

layers.3.weight f4 [10, 10]
-0.4359044 0.83489984 -0.053818595 -0.9009512 0.070150584 0.82945466 0.080847405 0.33998033
0.10113191 0.5453419 0.119715855 -0.1261205 -0.13824551 0.038729127 0.49572963 0.5039905
1.2537408 0.4833715 -0.5157004 -0.5829671 -1.044012 -0.36868027 -0.5385031 0.6259838
-0.82868207 0.6288003 -0.3823554 0.37852126 0.9574434 -0.6692867 -0.663375 0.53360945
-0.3562383 1.0934243 0.15111598 0.8395247 0.03406136 -0.2304408 0.26235947 -0.48633188
-0.33509326 0.59229726 0.18742508 0.3314378 -0.011198078 -0.4298859 -0.23743273 -0.68559647
-0.08708507 -0.22385913 0.1384641 -0.2768796 0.16885749 -0.29990214 -0.2675803 -0.2801215
-0.4441407 -0.17697398 0.56773275 0.27090016 -0.78819644 0.04031429 0.4977318 0.92255545
0.5262615 -0.28107038 0.24583912 0.3904057 -0.5044061 -0.34620434 0.37330824 -1.2745341
-0.2041999 0.9061727 0.62775224 -0.7690008 0.6178742 -0.11303543 0.2597197 -0.13835877
0.15594824 0.6236823 -0.23741843 0.15687011 0.34567928 0.37319908 1.0105838 0.10738399
-0.8580013 -0.23378894 -0.29319283 0.793656 -0.47817764 0.24786717 0.37565172 -0.47236753
0.069235556 -0.41741318 0.27008888 0.27966234
00000000: dd2e dfbe ffbb 553f e370 5cbd bda4 66bf
00000010: 1cab 8f3d 2457 543f 5393 a53d e711 ae3e
00000020: 3f1e cf3d 879b 0b3f 962d f53d bb25 01be
00000030: 3b90 0dbe 6fa2 1e3d 46d0 fd3e 8505 013f
00000040: 947a a03f 787c f73e f104 04bf 553d 15bf
00000050: 2fa2 85bf a9c3 bcbe 57db 09bf 7940 203f
00000060: 8224 54bf 0ef9 203f 16c4 c3be 8acd c13e
00000070: 031b 753f 6056 2bbf f2d2 29bf a19a 083f
00000080: de64 b6be 54f5 8b3f 26be 1a3e 17eb 563f
00000090: ed83 0b3d acf8 6bbe fb53 863e 7e00 f9be
000000a0: 5891 abbe cba0 173f 5cec 3f3e 37b2 a93e
000000b0: 2578 37bc 011a dcbe 9121 73be 4083 2fbf
000000c0: a859 b2bd 543b 65be 88c9 0d3e 2ac3 8dbe
000000d0: fae8 2c3e c68c 99be 4900 89be 166c 8fbe
000000e0: 6966 e3be ab38 35be ef56 113f 6db3 8a3e
000000f0: 3ec7 49bf 9920 253d b4d6 fe3e 982c 6c3f
00000100: 13b9 063f 75e8 8fbe 40bd 7b3e 42e3 c73e
00000110: c220 01bf b241 b1be 4222 bf3e ef23 a3bf
00000120: c719 51be effa 673f 5fb4 203f 3ddd 44bf
00000130: 012d 1e3f 1f7f e7bd fbf9 843e ecad 0dbe
00000140: e5b0 1f3e a5a9 1f3f d11d 73be 8fa2 203e
00000150: e0fc b03e f313 bf3e cf5a 813f 23ec db3d
00000160: f9a5 5bbf 5e66 6fbe 5f1d 96be 0a2d 4b3f
00000170: b3d3 f4be e4d0 7d3e 6c55 c03e 28da f1be
00000180: 5fcb 8d3d 2eb7 d5be 1749 8a3e e72f 8f3e

layers.3.bias f4 [10]
-0.27789083 0.27761596 0.2742135 -0.1840032 -0.04053584 -0.15182394 0.22933371 0.24763063
-0.34017706 -0.24955079
00000000: b547 8ebe ae23 8e3e b665 8c3e 566b 3cbe
00000010: e908 26bd bc77 1bbe 75d6 6a3e e292 7d3e
00000020: b02b aebe 3e8a 7fbe

layers.4.weight f4 [10, 10]
-1.0144976 0.768123 0.12188455 0.09751077 -1.1903353 -0.59253234 -0.21050388 0.18559632
-0.0045005623 0.34207126 -0.6011992 -0.9629803 0.14567435 0.19666219 0.7687251 -0.4803223
1.0690534 -0.09567192 -0.034105565 -0.13339037 0.1653265 -0.2730499 0.28166166 -0.12443007
1.3588744 0.10255323 0.038127556 0.21929048 0.22621149 0.4633201 -0.5130251 0.92251176
0.5603123 -0.09097308 -0.92658675 -0.11586228 -0.1803649 0.533042 -0.26701662 0.08107162
-0.56378454 -0.7901542 -0.13638267 0.8242867 -0.31750607 -1.309115 -0.2051563 0.2943064
0.10784717 0.92672354 0.02850313 -0.0681566 -0.008151456 -0.30648646 -0.08059953 0.14033477
-0.4453566 0.49526054 -0.643956 -0.40343103 -0.068659306 0.3652853 -0.28886124 0.57461894
-0.3108212 -0.16818485 0.6839054 -0.8096135 -0.42114154 0.34914032 0.7403688 1.3987669
0.46948704 -0.5488632 -0.54918134 0.05509669 -0.7175265 0.46904385 0.14191854 0.21958359
0.79646736 -0.6904025 0.23511086 0.25067797 0.6706222 -0.21029298 -0.33284065 -0.59284115
-0.13376966 -0.58397627 -0.59176 0.44762394 -0.28960216 0.93936324 -0.5483397 -0.25554633
0.51544595 -0.20612057 0.443473 0.28104785
00000000: 0fdb 81bf b5a3 443f 9b9e f93d bab3 c73d
00000010: e85c 98bf 33b0 17bf 548e 57be f60c 3e3e
00000020: 7479 93bb f723 af3e 31e8 19bf e085 76bf
00000030: a82b 153e d061 493e 2bcb 443f ceec f5be
00000040: bed6 883f a4ef c3bd 47b2 0bbd 7c97 08be
00000050: 5a4b 293e 32cd 8bbe f535 903e 31d5 febd
00000060: 99ef ad3f 6e07 d23d a42b 1c3d af8d 603e
00000070: fca3 673e 4b38 ed3e 9d55 03bf bb29 6c3f
00000080: a070 0f3f 1850 babd ca34 6dbf 3449 edbd
00000090: 94b1 38be 7175 083f 67b6 88be e108 a63d
000000a0: 2f54 10bf 8c47 4abf e6a7 0bbe 7404 533f
000000b0: 2890 a2be 1591 a7bf 7e14 52be 54af 963e
000000c0: fade dc3d c13d 6d3f 657f e93c b095 8bbd
000000d0: af8d 05bc cbeb 9cbe 5e11 a5bd ebb3 0f3e
000000e0: c805 e4be ca92 fd3e 4dda 24bf 838e cebe
000000f0: 409d 8cbd ad06 bb3e 9fe5 93be 3a1a 133f
00000100: f523 9fbe a638 2cbe 6d14 2f3f d542 4fbf
00000110: dd9f d7be 85c2 b23e cf88 3d3f cb0a b33f
00000120: 9b60 f03e 4c82 0cbf 2697 0cbf 11ad 613d
00000130: d1af 37bf 8426 f03e 1853 113e 85da 603e
00000140: 49e5 4b3f 38be 30bf e7c0 703e dd58 803e
00000150: e6ad 2b3f 0b57 57be 176a aabe 70c4 17bf
00000160: eafa 08be 787f 15bf 957d 17bf f72e e53e
00000170: bc46 94be 1c7a 703f fe5f 0cbf f8d6 82be
00000180: 44f4 033f 4511 53be e50e e33e 81e5 8f3e

layers.4.bias f4 [10]
0.3015693 -0.23241816 -0.28777784 0.25530505 -0.25342172 -0.23184839 -0.10220916 0.037599374
-0.18395352 -0.11002149
00000000: 4b67 9a3e 07ff 6dbe 9e57 93be 58b7 823e
00000010: 7ec0 81be aa69 6dbe 0953 d1bd cd01 1a3d
00000020: 505e 3cbe f252 e1bd

layers.5.weight f4 [1, 10]
0.049247276 0.51292366 0.44295737 0.12434714 -0.06955356 -0.30085775 0.5214301 0.16107628
0.048008613 0.86000884
00000000: 83b7 493d f74e 033f 4fcb e23e b7a9 fe3d
00000010: 1972 8ebd 070a 9abe 717c 053f 2ef1 243e
00000020: aea4 443d 8a29 5c3f
