01_pure_bend_rand/CPU/net_u_20240703_181602.pth (torch, 6223 bytes, 7 tensors)

layers.0.weight f4 [20, 2]
0	0x3f454408	0.7705693
1	0xbf336d1c	-0.7008836
2	0xbf4d013e	-0.8008002
3	0x3f92a85f	1.1457633
4	0x3eef90f1	0.4679027
5	0xbb907466	-0.004408407
6	0x3f4f02d4	0.8086369
7	0xbea79fe9	-0.3273919
8	0xbfbe51f8	-1.4868765
9	0x40041673	2.0638702
10	0xbcc302f7	-0.023805125
11	0xbeaa590f	-0.3327107
12	0x40109ef9	2.259703
13	0x3e82f4f8	0.2557752
14	0x3ff18e21	1.8871499
15	0x3f4b7201	0.7947083
16	0x3fdc76c4	1.7223744
17	0x3e47bd4a	0.19505802
18	0xbfbaeb56	-1.4603069
19	0x3e424afd	0.18973918
20	0xbf1adda1	-0.6049443
21	0x3f690c32	0.91034234
22	0x3f0f6f64	0.56029344
23	0xbfe2eef5	-1.7729174
24	0x3f2bfa76	0.6717905
25	0x3e8e9071	0.27844575
26	0xbecfc73a	-0.40581685
27	0x4011943a	2.274672
28	0xbe21e289	-0.15809073
29	0xbd9492db	-0.07254573
30	0xbebc469c	-0.3677262
31	0xbc01b94f	-0.007917716
32	0x3dae74f2	0.08518399
33	0xbf70f5df	-0.9412517
34	0xbef0621d	-0.46949854
35	0x3d5c7a08	0.053827316
36	0x3fee1ca9	1.8602496
37	0xbf2cd053	-0.6750538
38	0xbfb7ff71	-1.437483
39	0xbfebdf9c	-1.8427615

layers.0.bias f4 [20]
0	0x3f3851d1	0.7199984
1	0x3f206536	0.62654436
2	0x3e979a43	0.2960988
3	0xbe1d32de	-0.15351436
4	0xbf0fbc82	-0.56147015
5	0xbf0b6326	-0.54448164
6	0x3f703525	0.9383109
7	0x3f290f34	0.66038823
8	0x3ef6d93d	0.48212615
9	0x3e9a6270	0.30153227
10	0xbf2476d1	-0.642438
11	0xbf81ba91	-1.013506
12	0x3f357d04	0.70893884
13	0x3eba9383	0.36440668
14	0x3e5d64b1	0.21620442
15	0xbf1cf1d1	-0.6130648
16	0x3f25120b	0.64480656
17	0xbeefcee3	-0.4683753
18	0x3e9e4ab5	0.30916372
19	0xbf880085	-1.0625159

layers.1.weight f4 [20, 20]
0	0x3f10f267	0.56619877
1	0xbe38f3c3	-0.18061738
2	0x3d73e663	0.059545886
3	0xbeef2dbf	-0.4671459
4	0xbe45f1ab	-0.1933047
5	0xbf2c49b4	-0.6729996
6	0x3eee0164	0.46485436
7	0xbd7c4002	-0.06158448
8	0xbee30710	-0.44341326
9	0x3e078ee0	0.13238096
10	0x3eb40e3d	0.35167113
11	0xbee85400	-0.45376587
12	0x3eb40393	0.35158977
13	0xbf4d8e9a	-0.8029572
14	0x3cb38aca	0.021916766
15	0xbe82ee9c	-0.2557267
16	0x3e9c0a36	0.3047654
17	0x3d01cb23	0.031687867
18	0xbc48429f	-0.012222915
19	0xbee49852	-0.4464746
20	0x3e6cedee	0.23137638
21	0x3ec47deb	0.38377318
22	0x3deb7a75	0.11497966
23	0xbec74ec6	-0.38927287
24	0xbf07d78b	-0.5306327
25	0xbf3075c1	-0.6892968
26	0x3e32c812	0.17459133
27	0xbe9ebb87	-0.31002447
28	0x3e2d3453	0.16914491
29	0x3d57fb80	0.052730083
30	0xbf87ba79	-1.0603782
31	0x3e6280f6	0.22119507
32	0x3e3e2fd5	0.18572934
33	0x3ebe1fb3	0.3713356
34	0x3f1d82c5	0.61527663
35	0xbe30ab73	-0.17252903
36	0x3f5780cf	0.8418092
37	0x3f495261	0.78641325
38	0x3edac0a3	0.42725095
39	0xbe25ff1d	-0.16210599
40	0x3ec6a513	0.38797817
41	0x3d676980	0.056497097
42	0xbebf46d2	-0.3735872
43	0x3e387b3b	0.18015759
44	0x3efc8625	0.49321094
45	0x3ee40dd8	0.44541812
46	0x3eaeba29	0.34126404
47	0x3d36f8e5	0.044670958
48	0xbea9de39	-0.33177355
49	0xbe6fca62	-0.23417047
50	0x3ecf0700	0.40435028
51	0xbf4962c0	-0.78666306
52	0x3f4d9128	0.80299616
53	0xbd8c3251	-0.068455346
54	0xbe113c37	-0.14183126
55	0x3d2192bc	0.039446577
56	0xbedf858d	-0.4365658
57	0xbe3c1628	-0.18367827
58	0xbdc54da2	-0.09633948
59	0x3df91e71	0.12164009
60	0xbf62bcee	-0.88569534
61	0xbdc37d49	-0.095453806
62	0xbed856ab	-0.42253622
63	0xbf23dab5	-0.64005595
64	0x3f452e7f	0.7702407
65	0x3e84abe7	0.259124
66	0x3e964763	0.2935134
67	0x3ce3040c	0.02771189
68	0x3ec3074d	0.38091508
69	0x3e8b83db	0.27249035
70	0x3f3df491	0.74201304
71	0xbe15648d	-0.14589138
72	0xbf146edc	-0.5798166
73	0x3e46deed	0.19420977
74	0x3e34cbb8	0.17655838
75	0xbd230ebc	-0.039808974
76	0xbf5f4b29	-0.8722406
77	0x3ec56ec5	0.38561073
78	0xbed8c1c9	-0.42335346
79	0x3ecf1580	0.4044609
80	0x3dc0c83e	0.09413193
81	0xbf027e4e	-0.50973976
82	0x3ec7d7af	0.3903174
83	0x3edf2dca	0.43589622
84	0xbea437a6	-0.32073706
85	0xbe86866e	-0.26274437
86	0xbd537baf	-0.051631626
87	0xbefe286a	-0.49640208
88	0x3ed97212	0.4246984
89	0x3e9dde17	0.30833504
90	0x3e3125ba	0.17299548
91	0xbf280bcc	-0.65643
92	0x3e80baed	0.25142613
93	0xbdf78c80	-0.12087345
94	0x3e5a5c42	0.21324256
95	0xbe8eecb6	-0.2791497
96	0xbeec725c	-0.46181
97	0xbf1eb55c	-0.6199548
98	0xbefac66f	-0.48979518
99	0xbe9533d3	-0.291411
100	0xbd691c43	-0.056911718
101	0xbeeb40a0	-0.45947742
102	0xbf0848fd	-0.5323637
103	0xbe89145c	-0.26773345
104	0x3e4d86fb	0.20071022
105	0xbdca34c1	-0.09873343
106	0x3e843060	0.25818157
107	0xbeb4e95b	-0.35334286
108	0x3dd95f4e	0.10613881
109	0x3e0c9d38	0.13731849
110	0x3e817af0	0.25289106
111	0x3e2b2a46	0.16715345
112	0x3ec6482f	0.38726947
113	0x3dc03cd7	0.09386604
114	0x3dd61015	0.10452286
115	0x3ea90482	0.33011252
116	0xbe3cb335	-0.18427737
117	0x3e8bf1f6	0.2733304
118	0x3e999530	0.29996634
119	0x3f41a314	0.7563946
120	0xbe82c2df	-0.255393
121	0xbea355bd	-0.3190135
122	0x3eb5d6c6	0.35515422
123	0x3ed48875	0.41510358
124	0x3d9be640	0.07612276
125	0x3f14a317	0.58061355
126	0x3c81b10c	0.015831493
127	0xbea47988	-0.3212397
128	0xbe9cc094	-0.30615675
129	0xbf39a4e5	-0.72517234
130	0x3f58d8d6	0.84705865
131	0x3e9da96c	0.3079332
132	0xbe819da7	-0.25315592
133	0x3d65e544	0.056126848
134	0x3c09679a	0.008386517
135	0x3ebd63ce	0.36990207
136	0x3cff7d7f	0.03118777
137	0x3f0a09aa	0.53920996
138	0x3e4f2c2e	0.20231697
139	0x3e780b18	0.24222982
140	0xbef98b07	-0.48738882
141	0xbcb7c244	-0.0224315
142	0xbbeb86be	-0.0071876934
143	0x3e1d9785	0.15389831
144	0x3ebf552f	0.37369677
145	0xbe49ac3e	-0.19694611
146	0xbe4fd2c5	-0.20295246
147	0xbd9a288f	-0.07527267
148	0xbdf302f3	-0.11865797
149	0x3e9e69c3	0.30940065
150	0x3eaed80e	0.34149212
151	0x3ebc2a51	0.36751035
152	0xbd835f4f	-0.06414663
153	0x3f03cec8	0.514874
154	0xbb952d9f	-0.0045525576
155	0x3e4c6649	0.19960894
156	0xbee067b2	-0.43829113
157	0xbe880cfa	-0.265724
158	0xbde64703	-0.11244013
159	0x3f575e33	0.8412811
160	0xbe1ac4b8	-0.15114105
161	0x3f1b4714	0.6065533
162	0x3ea2a995	0.31770006
163	0x3e971027	0.2950451
164	0x3f338fc8	0.7014127
165	0xbe138c71	-0.14409043
166	0xbf65006c	-0.8945377
167	0x3e105a58	0.14096963
168	0xbea828d3	-0.32843646
169	0x3ee25dc8	0.44212174
170	0xbdcf9400	-0.10135651
171	0x3f3eb0d1	0.7448855
172	0x3ea824e8	0.32840657
173	0xbef74994	-0.48298323
174	0x3e9f90ec	0.31165254
175	0xbebaec70	-0.36508512
176	0xbe91c0f5	-0.28467527
177	0xbdafe1dd	-0.08588002
178	0xbdf3f3f7	-0.11911767
179	0x3f6b6cf9	0.91963154
180	0x3d8b30f4	0.067964464
181	0xbe023431	-0.12715222
182	0xbea9825f	-0.33107278
183	0xbe69ac6b	-0.22819678
184	0xbdc61dc0	-0.09673643
185	0xbeae93ca	-0.3409713
186	0x3f29d5d6	0.6634191
187	0x3e562b5f	0.20914982
188	0xbd2e3f00	-0.04254055
189	0xbdb3c1ad	-0.08777175
190	0xbf0474cd	-0.51740724
191	0xbeb4b491	-0.3529401
192	0xbce846d1	-0.02835408
193	0x3f26e78b	0.65197057
194	0x3d23cad7	0.039988365
195	0x3d42c3bc	0.047549948
196	0x3dd28516	0.102792904
197	0xbe98692d	-0.29767743
198	0x3e38ea10	0.18058038
199	0x3e85db46	0.26143855
200	0x3ed1abd2	0.409514
201	0xbe9f41a1	-0.31104758
202	0xbf08b323	-0.5339834
203	0xbd4d7183	-0.05015708
204	0x3e90a8de	0.28253835
205	0x3efa26c0	0.4885769
206	0xbe2be1fc	-0.16785425
207	0x3f4c7faa	0.798823
208	0x3e7fef2f	0.24993585
209	0xbcfee4b0	-0.031114906
210	0xbead905b	-0.33899197
211	0xbc080354	-0.008301575
212	0xbdf5feb8	-0.12011474
213	0x3db52cf7	0.08846467
214	0x3e58a1cf	0.21155475
215	0xbe59d4f6	-0.21272644
216	0xbe28c2b3	-0.16480522
217	0x3ea50c11	0.32235768
218	0x3e7650ad	0.24054213
219	0x3d9d9182	0.07693769
220	0x3e13cb96	0.1443313
221	0x3f219a3a	0.63125956
222	0x3dcdf200	0.100559235
223	0x3de365a3	0.1110337
224	0xbdca4ae0	-0.098775625
225	0x3dc96b55	0.09834925
226	0x3f358922	0.70912373
227	0xbe30082f	-0.17190622
228	0xbe8d9799	-0.27654722
229	0x3ec427d5	0.3831164
230	0x3f395c19	0.72406155
231	0xbea21634	-0.31657565
232	0xbeec5b7c	-0.46163547
233	0xbef4f5a0	-0.47843647
234	0xbee5c7bd	-0.4487895
235	0xbf2894d5	-0.658521
236	0xbe339535	-0.17537387
237	0xbeb04990	-0.34431124
238	0x3c6cd217	0.014454386
239	0xbe605dbc	-0.21910757
240	0xbedaef7e	-0.42760843
241	0x3e500be1	0.20317031
242	0xbf0478a7	-0.517466
243	0x3eac0281	0.3359566
244	0x3eeb8cb5	0.46005788
245	0x3ebfed57	0.37485763
246	0x3d410e17	0.047132578
247	0x3e92aff1	0.28649858
248	0xbe4c7646	-0.19966993
249	0xbe954f75	-0.29162183
250	0xbebd55ed	-0.3697962
251	0xbef652e6	-0.4811012
252	0x3e84ea8b	0.25960192
253	0xbf1b91ce	-0.60769355
254	0x3eae6eca	0.340689
255	0xbec2e6cb	-0.38066706

layers.1.bias f4 [20]
0	0x3cab9ccd	0.020948792
1	0x3e9b4f98	0.30334163
2	0xbdaee655	-0.08540026
3	0xbde0cc02	-0.109764114
4	0x3d96ec24	0.07369259
5	0xbe0dc107	-0.13843165
6	0xbe361be3	-0.17784075
7	0x3d8070f8	0.06271547
8	0xbdfdd737	-0.123945646
9	0xbdb34040	-0.08752489
10	0x3e5078bc	0.20358557
11	0xbda580cf	-0.08081209
12	0x3bd80b55	0.0065931478
13	0xbe915f74	-0.28393137
14	0x3d76ed9d	0.0602852
15	0xba20cbb7	-0.00061338715
16	0x3e8f8ba8	0.28036237
17	0x3d38e8b3	0.045143794
18	0xbe02a6cb	-0.12758939
19	0xbd71a813	-0.05899818

layers.2.weight f4 [20, 20]
0	0xbcc5b1e7	-0.024132682
1	0xbcdf9033	-0.02729044
2	0xbe033b64	-0.12815624
3	0x3e5f3d1f	0.2180066
4	0xbd12439b	-0.035709005
5	0x3ed7bc5b	0.4213589
6	0x3f0d3cbe	0.5517081
7	0xbca997c8	-0.020702258
8	0x3e94a60c	0.29032934
9	0xbeb2ae57	-0.34898636
10	0x3e02ec6a	0.12785497
11	0x3e990228	0.29884458
12	0xbdf25f33	-0.11834564
13	0xbf149354	-0.58037305
14	0xbdd36aa9	-0.10323078
15	0x3f3b5618	0.73178244
16	0x3eb4866f	0.35258815
17	0xbe72bcd5	-0.23704846
18	0x3f10c012	0.56543076
19	0xbe3885d1	-0.18019797
20	0xbf60218c	-0.8755119
21	0x3e82fab8	0.25581908
22	0xbd03b141	-0.032151464
23	0xbda44c4d	-0.08022366
24	0x3e6c02b5	0.23047908
25	0xbe69474d	-0.22781105
26	0x3c5b4440	0.013382971
27	0x3f50a3ce	0.81499946
28	0x3b2629a0	0.00253544
29	0xbdd30137	-0.10302966
30	0xbe4fda31	-0.20298077
31	0x3ef5b017	0.47985908
32	0xbea9c7cb	-0.33160242
33	0x3dcd3532	0.10019912
34	0x3f02c4fd	0.5108183
35	0xbf2340ab	-0.6377055
36	0xbedef88a	-0.43548995
37	0xbf00af59	-0.5026756
38	0x3ec278cf	0.37982795
39	0xbd50ce57	-0.05097803
40	0x3e39c765	0.18142469
41	0xbf0bedc4	-0.54659677
42	0xbe7b8ff7	-0.24566637
43	0x3de4c634	0.11170617
44	0x3e93d7f8	0.2887571
45	0x3e38f6bc	0.18062872
46	0xbe5dad71	-0.21648194
47	0x3c769d9c	0.015052225
48	0xbe83e181	-0.25757983
49	0xbf0e500b	-0.55590886
50	0x3ddd6f7b	0.10812279
51	0xbf2d5d26	-0.6772026
52	0x3ecd8fec	0.40148866
53	0x3deb5f9b	0.11492845
54	0xbe824323	-0.25441846
55	0xbe04b031	-0.12957837
56	0x3c67123f	0.014103471
57	0xbe93f516	-0.28897923
58	0x3e41848b	0.18898217
59	0x3ecfd60f	0.40593
60	0x3eecefc6	0.46276683
61	0xbe19fb57	-0.15037285
62	0x3e91394b	0.28364024
63	0x3edf418f	0.43604705
64	0x3eee0d78	0.4649465
65	0x3e53d62f	0.20687173
66	0x3de77b67	0.11302834
67	0xbeed92d7	-0.46401092
68	0xbea65de4	-0.32493508
69	0x3ec8b3be	0.39199632
70	0xbd52e876	-0.051491223
71	0xbef5e499	-0.4802597
72	0xbef99621	-0.48747352
73	0xbedac6ab	-0.42729697
74	0xbc5a31b4	-0.013317514
75	0xbf0dc2d8	-0.5537543
76	0x3de40fed	0.1113585
77	0xbe37334f	-0.17890666
78	0xbe0672af	-0.13129686
79	0xbd682faf	-0.0566861
80	0xbb836f74	-0.004011089
81	0x3ed55559	0.41666678
82	0x3eb9c268	0.36281133
83	0x3defe354	0.11713281
84	0x3e4eec93	0.20207433
85	0xbe76d480	-0.241045
86	0xbe8c85d6	-0.2744586
87	0x3ee3e860	0.44513226
88	0xbed07c5d	-0.40719882
89	0xbcc3b35a	-0.023889232
90	0xbe0cba65	-0.13742979
91	0xbec336d9	-0.38127783
92	0xbe0e51c2	-0.13898376
93	0x3ea0e52f	0.31424853
94	0xbb94d783	-0.0045422926
95	0x389f30dc	7.5908116e-05
96	0x3e5f7abd	0.21824165
97	0x3ec25bc0	0.37960625
98	0x3e9547de	0.29156393
99	0xbf1b2b4b	-0.60612935
100	0x3ec6675a	0.38750726
101	0xbe6eb685	-0.23311813
102	0x3f14c12b	0.5810725
103	0xbe97a49a	-0.2961777
104	0x3f113c82	0.5673295
105	0xbea45a9d	-0.32100382
106	0x3e757a36	0.23972401
107	0xbc29b06f	-0.010357006
108	0xbd99ce7d	-0.07510088
109	0x3dc5ad12	0.09652151
110	0x3d03b1f9	0.03215215
111	0x3e39ac7f	0.18132208
112	0x3e0424d5	0.12904675
113	0xbd3b5fbc	-0.045745596
114	0x3dd4573d	0.10368202
115	0xbf3a122e	-0.7268399
116	0xbd981ae8	-0.07427007
117	0x3e8a78f3	0.27045402
118	0xbd4265b5	-0.047460277
119	0x3efc0003	0.4921876
120	0xbe1df6d5	-0.1542619
121	0x3f06833a	0.52543986
122	0x3d15fa7b	0.03661583
123	0xbdbff0ba	-0.09372087
124	0xbd6c8d81	-0.057752136
125	0x3ec0c875	0.37652937
126	0x3d8b4b1d	0.06801436
127	0xbeb37c04	-0.35055554
128	0xbdee245e	-0.1162803
129	0xbeee2703	-0.4651414
130	0xbed76eb0	-0.42076635
131	0xbd5ada03	-0.05343057
132	0xbf0d1c79	-0.5512157
133	0xbd681f67	-0.056670573
134	0xbda91f9a	-0.08257981
135	0xbe21dbe6	-0.15806541
136	0x3cbcf563	0.023066228
137	0xbf2e7050	-0.68140125
138	0x3e9b9785	0.30389038
139	0x3eed0ffd	0.4630126
140	0x3dded36c	0.10880169
141	0x3d628838	0.05530569
142	0x3e659f18	0.2242397
143	0xbb7b76de	-0.003837041
144	0xbd3f5b0c	-0.04671769
145	0x3eb9dff8	0.36303687
146	0x3d83ea58	0.06441182
147	0xbe2f52a9	-0.17121376
148	0x3cdb5ef8	0.026778683
149	0x3d5a1529	0.053242836
150	0xbbdd1bad	-0.006747684
151	0x3ed2635f	0.4109144
152	0x3db1ecfe	0.08687781
153	0x3f1915b5	0.5979875
154	0x3f342799	0.7037292
155	0xbf0ac0e0	-0.54200554
156	0xbe7cb222	-0.24677327
157	0x3e996e14	0.29966795
158	0xbf0fdbf2	-0.56194985
159	0x3eaee246	0.34157008
160	0x3eb5aa0f	0.35481307
161	0x3a135f58	0.00056218123
162	0x3ee4ca33	0.44685516
163	0x3cde3957	0.027126951
164	0x3d39ba2e	0.04534357
165	0xbe4820e2	-0.19543794
166	0xbf005956	-0.50136316
167	0xbefc73ff	-0.49307248
168	0x3e085e50	0.13317227
169	0x3e23fc24	0.16014153
170	0xbdc002d7	-0.09375542
171	0x3d8e5858	0.06950444
172	0x3e3033c8	0.17207253
173	0x3e010bbd	0.12602134
174	0xbe0a37f1	-0.13497902
175	0x3dd9a93b	0.10627981
176	0x3e530a72	0.20609453
177	0x3d37144b	0.044697087
178	0xbef3735c	-0.4754895
179	0x3d66e332	0.056369014
180	0xbe4742e0	-0.19459105
181	0x3f0221ca	0.5083281
182	0x3d18c25d	0.037294734
183	0xbdfb9f98	-0.122862995
184	0xbe0eabde	-0.1393275
185	0x3e98c3b6	0.29836816
186	0x3e74b24f	0.23896144
187	0xbec65f47	-0.38744566
188	0xbee2b768	-0.44280553
189	0xbe7649c6	-0.2405158
190	0x3df676a8	0.12034351
191	0xbf2c7380	-0.6736374
192	0xbda45006	-0.08023076
193	0xbeecb106	-0.46228808
194	0x3e071409	0.13191237
195	0xbed98a8d	-0.42488518
196	0x3f0d2f62	0.55150425
197	0xbe5ccb9e	-0.21562049
198	0x3b77acb0	0.0037792139
199	0x3f085fa8	0.5327096
200	0x3e974d0c	0.2955097
201	0xbe019a33	-0.12656479
202	0x3f2d5a6f	0.67716116
203	0xbed22e17	-0.4105079
204	0x3c6240f6	0.013809433
205	0x3c24a658	0.010049425
206	0xbdeac586	-0.11463456
207	0xbe96dabc	-0.29463756
208	0x3e8d5e16	0.27610844
209	0x3d42c2ef	0.047549184
210	0x3df44ae0	0.11928344
211	0x3e428c87	0.1899892
212	0xbe4b14b0	-0.1983211
213	0xbe0ae9ea	-0.13565794
214	0xbe3415de	-0.17586467
215	0xbed1485b	-0.40875515
216	0x3e72ea80	0.23722267
217	0xbe2e1c7f	-0.17003058
218	0x3e5d3f49	0.21606173
219	0x3d1f1a34	0.03884335
220	0x3ee2db70	0.44308043
221	0x3f35d2b4	0.7102463
222	0x3e6d9516	0.23201403
223	0xbe315616	-0.17317995
224	0x3e923848	0.28558564
225	0xbed2209f	-0.41040513
226	0x3d470072	0.04858441
227	0x3b344b64	0.0027510757
228	0xbe737f18	-0.23778951
229	0x3eed2ca9	0.46323135
230	0xbdaeb5a2	-0.085307375
231	0x3f0d776f	0.55260366
232	0xbbf70bef	-0.0075392644
233	0x3d157c6e	0.03649562
234	0xbe923717	-0.28557655
235	0x3e6b9a55	0.23008092
236	0x3e8d0188	0.2754023
237	0x3f4e2853	0.8053028
238	0xbef14aff	-0.4712753
239	0x3e9121fa	0.28346235
240	0x3e9fbb68	0.31197667
241	0xbe9aac0b	-0.30209383
242	0x3e9148d3	0.28375873
243	0xbf210505	-0.62898284
244	0xbf440796	-0.76574075
245	0xbe9cda74	-0.30635417
246	0xbf4a7533	-0.7908508
247	0xbf10ff3f	-0.56639475
248	0xbe480929	-0.19534744
249	0x3e41e12d	0.18933554
250	0x3ee63fc5	0.44970527
251	0xbe8f8cfd	-0.28037253
252	0xbf139543	-0.5764963
253	0x3edba405	0.42898574
254	0xbd49406b	-0.0491337
255	0xbdbf8874	-0.09352198

layers.2.bias f4 [20]
0	0x3e33a0ef	0.1754186
1	0x3df24b31	0.11830748
2	0x3e117db8	0.14208114
3	0x3e0d5d9c	0.1380524
4	0x3a7e882a	0.0009709621
5	0x3dc52341	0.09625865
6	0xbdbf3fc4	-0.09338334
7	0xbdbd6d43	-0.09249356
8	0x3dc6488b	0.09681805
9	0x3dd3d906	0.10344128
10	0x3dfc7997	0.12327879
11	0x3c9b32a3	0.018945044
12	0xbe4b903d	-0.19879241
13	0xbb288c11	-0.0025718252
14	0xbe973d40	-0.29538918
15	0x3e7ca9f9	0.24674214
16	0xbe61ae73	-0.22039203
17	0x3dfd1fb7	0.12359565
18	0x3dfcbc47	0.123405986
19	0x3e757a43	0.2397242

layers.3.weight f4 [1, 20]
0	0xbdbfde66	-0.09368591
1	0x3df71c5d	0.12065957
2	0xbf241eb3	-0.64109343
3	0x3dc82ad2	0.09773792
4	0xbd89168c	-0.066937536
5	0x3d179d8c	0.037015483
6	0x3e313210	0.17304254
7	0xbc8c071e	-0.017093237
8	0x3f005327	0.5012688
9	0xbeb9b3d5	-0.36270013
10	0x3e0d2537	0.13783728
11	0x3ddd83fd	0.108161904
12	0x3c81ca75	0.01584361
13	0x3e94fc82	0.29098898
14	0x3e8b1a3e	0.2716846
15	0xbd1ac96a	-0.03778974
16	0x3ebb814d	0.36622086
17	0x3d803d1d	0.062616564
18	0xbe92d353	-0.28676853
19	0x3d3f6ea1	0.046736363
