01_pure_bend_rand/CPU/net_u_20240704_123106.pth (torch, 5441 bytes, 11 tensors)

layers.0.weight f4 [10, 2]
0	0xbf1940fd	-0.5986479
1	0x3fe94d75	1.8226763
2	0xbde7d726	-0.11320333
3	0x3dd57afe	0.104238495
4	0xc0075244	-2.114396
5	0xbfbd0b4f	-1.4769076
6	0x3fc83da3	1.564381
7	0x3e229e92	0.15880802
8	0x3deabb00	0.11461449
9	0xbf6b90f6	-0.9201807
10	0x3f2190e9	0.6311174
11	0x3fca2ee3	1.5795559
12	0xbff1db73	-1.8895096
13	0xbfb9b2df	-1.4507712
14	0x401c7d71	2.4451563
15	0x3f898368	1.0743227
16	0xbfafeabd	-1.3743511
17	0x3fb8c225	1.4434248
18	0xbfef0bd2	-1.8675482
19	0xbfbb2c37	-1.4622868

layers.0.bias f4 [10]
0	0xbef6e8b6	-0.4822442
1	0x3be02bcf	0.00684116
2	0xbe9748fd	-0.29547873
3	0x3f618ce9	0.88105637
4	0x3e1f940d	0.1558382
5	0x3f3ff16c	0.74977756
6	0x3ed98ff1	0.4249263
7	0x3f567756	0.8377584
8	0x3f3bfc0d	0.73431474
9	0xbf4c22cb	-0.7974059

layers.1.weight f4 [10, 10]
0	0xbe4f2772	-0.20229891
1	0xbda07185	-0.07834152
2	0xbec3a4d0	-0.3821168
3	0x3dcc48ab	0.09974798
4	0xbf164750	-0.58702564
5	0x3e446cc7	0.1918212
6	0x3e406c0f	0.18791221
7	0xbdd6c538	-0.10486835
8	0x3c5644e3	0.013077947
9	0x3ea86cfa	0.32895643
10	0xbf03e645	-0.5152324
11	0x3f61a94e	0.88148963
12	0xbe71a7d8	-0.23599184
13	0xbe39f40f	-0.18159507
14	0x3f93a885	1.1535803
15	0x3dbbea82	0.09175588
16	0xbf0d0a47	-0.55093807
17	0xbd985485	-0.07437996
18	0xbda6d4e9	-0.08146078
19	0x3e396a80	0.18107033
20	0x3e3d48f1	0.18484856
21	0x3e90bbbf	0.2826824
22	0xbdeca1a0	-0.11554265
23	0x3f34371a	0.7039658
24	0x3f323fc8	0.6962857
25	0x3d48bb50	0.04900676
26	0x3ed27532	0.41105038
27	0x3ed50769	0.41607216
28	0x3e1d6bb6	0.1537312
29	0x3e0715a6	0.13191852
30	0xbe6aca05	-0.22928627
31	0x3f0e870f	0.55674833
32	0xbf73e78e	-0.952752
33	0x3cf6aee5	0.030112693
34	0xbec027c8	-0.3753035
35	0xbfb93985	-1.4470679
36	0x3e45a789	0.19302191
37	0x3e302c5d	0.17204423
38	0x3eaaae7b	0.33336243
39	0xbf80c6f4	-1.0060716
40	0xbe98b2af	-0.29823825
41	0x3d89a909	0.06721694
42	0x3f5c1fa3	0.85985774
43	0x3ccbf350	0.024896294
44	0xbec4aaf0	-0.38411665
45	0xbf582477	-0.8443064
46	0xbea292d9	-0.3175266
47	0xbe4bd87a	-0.19906798
48	0xbeea0a55	-0.45711008
49	0xbcd82033	-0.026382541
50	0x3ecdedaf	0.402204
51	0xbeb5a423	-0.3547679
52	0x3f072103	0.52784747
53	0x3ee9bf79	0.45653895
54	0xbec1612b	-0.37769446
55	0x3e8b5d17	0.2721946
56	0xbeb91b8b	-0.36153826
57	0x3f3cd508	0.7376256
58	0xbe723725	-0.23653848
59	0xbdc650ec	-0.096834034
60	0xbeccb98f	-0.3998532
61	0xbebb5669	-0.36589363
62	0xbd56c407	-0.05243304
63	0xbece9669	-0.4034913
64	0xbe96511e	-0.29358763
65	0x3f78a279	0.97122914
66	0x3f5b1357	0.85576385
67	0x3f87f50b	1.0621656
68	0xbd979acc	-0.07402572
69	0xbf232eaf	-0.6374311
70	0xbc55d98b	-0.013052355
71	0x3d938019	0.07202167
72	0x3f118178	0.5683818
73	0x3f93330a	1.1499951
74	0xbee9795b	-0.456004
75	0x3f09c2ba	0.53812754
76	0x3e7626c8	0.24038231
77	0x3ea32516	0.31864232
78	0x3eb69ec7	0.35668012
79	0x3e8350e0	0.2564764
80	0xbf152b83	-0.5826952
81	0xbd82c1bd	-0.06384609
82	0xbf74b036	-0.95581377
83	0x3f836c21	1.0267373
84	0xbeccb5d1	-0.39982465
85	0xbe9e8da1	-0.3096743
86	0x3e1eed9f	0.15520333
87	0xbf40f30b	-0.75370854
88	0x3ed995a5	0.42496982
89	0xbe31c274	-0.17359334
90	0xbd04e17b	-0.032441597
91	0x3e2fd5e9	0.17171444
92	0xbf1ba048	-0.60791445
93	0xbf0135b2	-0.5047256
94	0xbeb7cf49	-0.35900334
95	0x3f3a56b5	0.72788554
96	0x3f05d507	0.5227818
97	0xbe37614c	-0.1790821
98	0x3e508e40	0.20366764
99	0x3eb2c295	0.3491408

layers.1.bias f4 [10]
0	0xbdb55f19	-0.08856029
1	0x3e72be30	0.23705363
2	0x3d468edc	0.048476085
3	0x3ec5c267	0.3862488
4	0xbef2d6dd	-0.47429553
5	0x3e3e0c00	0.18559265
6	0xbd4265a2	-0.047460206
7	0x3dd75888	0.10514933
8	0xbd439315	-0.04774769
9	0xbe248ff8	-0.16070545

layers.2.weight f4 [10, 10]
0	0x3d8d1201	0.068881996
1	0xbed09e3c	-0.40745723
2	0x3f44b07b	0.7683179
3	0xbe785b2e	-0.24253532
4	0xbece4483	-0.40286645
5	0xbe3b7c45	-0.18309124
6	0x3d5611a3	0.052262913
7	0xbf4f6749	-0.81016976
8	0x3ed9d24b	0.42543253
9	0xbed45bf8	-0.41476417
10	0x3dd80b2c	0.10549006
11	0xbe89475a	-0.2681225
12	0xbd18078d	-0.037116576
13	0xbefc3373	-0.49258003
14	0x3f0ffd28	0.5624566
15	0xbf704df9	-0.93868977
16	0xbf185981	-0.5951157
17	0xbf8672c6	-1.0503776
18	0x3f5216ee	0.8206624
19	0x3ea266cd	0.31719056
20	0x3f80b9bd	1.0056683
21	0xbe45c51e	-0.19313475
22	0xbed59e18	-0.41722178
23	0xbf053f71	-0.5204993
24	0xbd86a243	-0.06573918
25	0x3f60dd17	0.87837356
26	0xbf10610c	-0.5639808
27	0x3f0bd172	0.54616463
28	0x3efe10b0	0.49622107
29	0xbe73efb6	-0.23821911
30	0x3edff2be	0.43739885
31	0xbe9901d7	-0.29884216
32	0x3f722008	0.94580126
33	0x3cfb0901	0.030643942
34	0xbbdd6317	-0.006756197
35	0x3e92d668	0.28679204
36	0xbf8f8760	-1.1213188
37	0xbedd6e4b	-0.4324821
38	0x3efe493f	0.49665257
39	0x3f935447	1.1510094
40	0x3efb9f6d	0.4914507
41	0xbee97310	-0.45595598
42	0x3efbb756	0.49163312
43	0xbfa95166	-1.3227966
44	0x3e9815e4	0.297042
45	0x3e816c4c	0.25277936
46	0xbf367792	-0.712762
47	0x3ecdf0c2	0.40222746
48	0xbe6d4799	-0.23171844
49	0x3f705153	0.9387409
50	0x3f5a8c2b	0.8537013
51	0xbed2c903	-0.41168985
52	0x3c9bc5b2	0.019015167
53	0x3e19b329	0.1500975
54	0xbfa5f03a	-1.2963936
55	0x3f45b18d	0.77224046
56	0x3b912f10	0.004430659
57	0xbeb54b1c	-0.35408866
58	0x3df248ec	0.11830315
59	0xbf3b3cfe	-0.7313994
60	0x3de86316	0.11347024
61	0xbf7cc484	-0.9873736
62	0x3e9326a5	0.2874042
63	0x3e7b962f	0.24569009
64	0x3f17a9dc	0.5924356
65	0xbef4f217	-0.4784095
66	0x3cc1cc10	0.023656875
67	0x3f40384d	0.7508591
68	0xbe91daff	-0.28487393
69	0x3dd23c05	0.10265354
70	0xbeac792d	-0.336862
71	0x3dc2590c	0.094896406
72	0x3edfd3ad	0.43716183
73	0x3d3c0457	0.045902576
74	0x3ef580d3	0.47949848
75	0xbf9886ce	-1.1916139
76	0xbf2ec996	-0.68276346
77	0x3f5fe3b0	0.874568
78	0xbf632fee	-0.8874501
79	0x3f55912c	0.8342464
80	0x3f42c083	0.76075
81	0x3eb280fd	0.34864035
82	0xbe0d352a	-0.13789812
83	0xbf37790e	-0.7166909
84	0x3f66988e	0.9007653
85	0x3aea1b0a	0.0017860841
86	0x3d84a4b7	0.06476729
87	0x3d834006	0.06408696
88	0xbfdbf3e5	-1.7183806
89	0x3ef0df40	0.47045326
90	0xbc173040	-0.009227812
91	0xbe7f8dd4	-0.24956447
92	0x3e8c939a	0.2745636
93	0xbf28a65c	-0.65878844
94	0x3faa18d5	1.3288828
95	0xbf02f9b9	-0.51162297
96	0xbecddc63	-0.40207204
97	0xbe8b4ed2	-0.27208573
98	0x3eec0d3d	0.4610385
99	0xbe09777a	-0.13424483

layers.2.bias f4 [10]
0	0x3e298540	0.16554737
1	0x3e0d15ab	0.13777797
2	0xbe594de1	-0.21221115
3	0x3e3a3e58	0.18187845
4	0x3d38a2e6	0.045077227
5	0x3ee1db58	0.44112659
6	0xbe982051	-0.29712155
7	0xbd938565	-0.07203177
8	0x3ddc9065	0.107697286
9	0xbdaac7b3	-0.08338871

layers.3.weight f4 [10, 10]
0	0xbcce686b	-0.025196275
1	0x3e6b7666	0.22994384
2	0xbf418754	-0.7559712
3	0xbe9ce335	-0.30642095
4	0xbe061d9a	-0.1309723
5	0x3ebd0794	0.36919844
6	0xbe92a93f	-0.2864475
7	0xbdc1fbc0	-0.094718456
8	0x3f5695cd	0.8382233
9	0x3ee13836	0.43988198
10	0x3d86489d	0.06556819
11	0xbcac486b	-0.021030625
12	0x3e9ff57b	0.31241974
13	0x3f4ac810	0.7921152
14	0x3f2e7240	0.6814308
15	0xbee0e928	-0.43927884
16	0xbe7ae30d	-0.24500675
17	0x3cdecd1b	0.027197411
18	0xbef62b1b	-0.48079762
19	0xbf8073c5	-1.003533
20	0xbf3fe247	-0.74954647
21	0x3e538b98	0.2065872
22	0x3ecdc09c	0.40186012
23	0xbec7fe29	-0.39061096
24	0x3f484f74	0.78246236
25	0xbddead22	-0.10872866
26	0xbf30b018	-0.690187
27	0x3e97f9a6	0.29682654
28	0xbd80c103	-0.06286814
29	0xbe583ba2	-0.21116498
30	0xbf8a9220	-1.0825844
31	0x3f94f0f7	1.1636037
32	0xbeb2c563	-0.3491622
33	0x3f17e99b	0.5934083
34	0xbf198e55	-0.59982806
35	0xbf0c7131	-0.54860216
36	0x3e66dc65	0.22545011
37	0x3e395886	0.18100175
38	0xbf142f67	-0.5788483
39	0x3f6b75ff	0.9197692
40	0xbea41ae2	-0.3205176
41	0xbe23844b	-0.15968435
42	0xbefe0d18	-0.49619365
43	0x3e9707a9	0.29498032
44	0x3f0307c0	0.511837
45	0x3ec9945b	0.39371
46	0x3d2cbb8a	0.04217104
47	0xbe932757	-0.2874095
48	0xbf1e3ee8	-0.6181474
49	0x3ee39fdf	0.4445791
50	0xbed6c618	-0.4194801
51	0x3ea66c25	0.32504383
52	0x3fbb341d	1.4625279
53	0xbe7a945c	-0.24470657
54	0x3dfdab42	0.123861805
55	0xbe631ddb	-0.22179358
56	0x3e8ad9ad	0.27119198
57	0xbe539e76	-0.20665917
58	0x3ec659fc	0.38740528
59	0x3e982831	0.29718164
60	0xbe23a543	-0.15981011
61	0x3f411cc6	0.7543453
62	0xbf7124c0	-0.941967
63	0x3d6d157f	0.05788183
64	0xbe4215ec	-0.18953675
65	0x3e9750ae	0.2955374
66	0x3d44eece	0.048079304
67	0x3e80dc2a	0.25167972
68	0x3e90dd1a	0.28293687
69	0xbf410b1e	-0.7540759
70	0xbe15e2a4	-0.14637238
71	0x3db48198	0.088137805
72	0xbed94d05	-0.42441574
73	0xbeb79e15	-0.35862795
74	0xbea5d47a	-0.3238867
75	0x3f608218	0.8769851
76	0xbe3bd4c5	-0.18342884
77	0xbe30d30b	-0.17268007
78	0xbe0c8a52	-0.1372464
79	0xbfa99559	-1.3248702
80	0xbdd7e39d	-0.10541461
81	0x3ee7024c	0.4511894
82	0x3e9a5d0c	0.30149114
83	0xbf06debd	-0.5268362
84	0xbe64b7b0	-0.22335696
85	0xba88d259	-0.0010438665
86	0x3f5e5724	0.86851716
87	0x3d191200	0.03737068
88	0x3c8883ba	0.016664375
89	0x3e9983f6	0.2998349
90	0x3d8ca866	0.06868057
91	0x3ed8666a	0.42265636
92	0xbdbd9c5a	-0.09258337
93	0x3f1ed293	0.6204006
94	0xbe827523	-0.25479993
95	0xbd53ac03	-0.051677715
96	0x3d8c2333	0.06842651
97	0x3f0bc2f2	0.5459434
98	0xbd6453af	-0.05574387
99	0x3e6ab8fc	0.22922128

layers.3.bias f4 [10]
0	0x3d0e6baf	0.034770664
1	0x3d780a77	0.060556855
2	0xbde71516	-0.11283319
3	0x3dacb9cb	0.08433875
4	0x3e7d240a	0.24720779
5	0x3e3e085c	0.18557876
6	0x3ea32334	0.31862795
7	0xbe094b50	-0.13407636
8	0xbd118f47	-0.03553703
9	0x3e0b33a4	0.13593918

layers.4.weight f4 [10, 10]
0	0x3dc1909b	0.094514094
1	0x3e82e8af	0.25568148
2	0x3e770d69	0.2412621
3	0x3eae9d03	0.34104165
4	0x3f10c82d	0.56555444
5	0x3d4a7422	0.04942716
6	0xbf5c22d8	-0.8599067
7	0xbf9e0dd7	-1.2347974
8	0x3ec88bd6	0.39169186
9	0x3e0575cb	0.13033216
10	0xbef61b0a	-0.48067504
11	0x3f478e09	0.77951103
12	0xbefb5a85	-0.49092498
13	0xbfa3095d	-1.2737232
14	0x3f8a2c09	1.0794688
15	0xbebc56f6	-0.36785096
16	0x3f0be426	0.54645
17	0x3e79a5e9	0.24379696
18	0xbe9168cc	-0.28400266
19	0x3f61cc90	0.8820276
20	0x3f89ff76	1.0781085
21	0x3fc9d52c	1.576818
22	0xbe0c2ec8	-0.1368972
23	0xbf7e3fce	-0.9931611
24	0xbeb12f62	-0.34606463
25	0xbd8020f4	-0.06256285
26	0xbef794eb	-0.48355803
27	0x3d47514e	0.048661523
28	0xbe17994e	-0.14804575
29	0x3ee74dfc	0.45176685
30	0xbe9757bc	-0.29559124
31	0x3ec9e5c3	0.39433107
32	0xbf3b35df	-0.73129076
33	0xbeb96766	-0.362117
34	0xbeaeca34	-0.34138644
35	0x3f62d5db	0.8860757
36	0x3f3c2ee3	0.73509043
37	0x3f1f328d	0.6218651
38	0xbf698615	-0.9122022
39	0xbd32190c	-0.043480918
40	0x3daa1bdc	0.08306095
41	0xbf091dd6	-0.5356115
42	0x3f19333e	0.59843814
43	0x3e7bcc47	0.24589644
44	0xbe40ac95	-0.18815835
45	0xbf4bf043	-0.79663485
46	0x3eb3445a	0.35013086
47	0xbe8f6129	-0.28003815
48	0xbef310ca	-0.47473747
49	0x3d2ad414	0.04170616
50	0x3e043fc6	0.12914953
51	0x3c8cd683	0.01719213
52	0xbcfbf4ce	-0.03075638
53	0xbe0cffa5	-0.13769396
54	0x3e7e33fe	0.24824521
55	0xbdba37e9	-0.09092695
56	0x3ecc8ccc	0.3995117
57	0xbf16a84f	-0.5885057
58	0xbd59ba9c	-0.05315648
59	0x3eb0ac0e	0.34506267
60	0x3e1c0088	0.15234578
61	0xbe0c3e6a	-0.13695684
62	0x3fea09d3	1.8284248
63	0xbc0c5800	-0.008565903
64	0x3e32330b	0.17402284
65	0x3f04c07b	0.518562
66	0x3f11b652	0.56918824
67	0xbf0f2a1e	-0.5592364
68	0xbec8c709	-0.39214352
69	0x3f38058a	0.7188345
70	0xbf785df3	-0.97018355
71	0xbf9828f4	-1.1887498
72	0xbeba8a5b	-0.36433682
73	0x3e92b37e	0.28652567
74	0x3e7fb405	0.24971016
75	0x3f0623d6	0.5239843
76	0xbd4dc42e	-0.05023592
77	0x3db13803	0.086532615
78	0xbe24c2d6	-0.16089949
79	0xbea8e8f1	-0.3299022
80	0x3f96fec0	1.1796494
81	0xbe22b33e	-0.15888688
82	0xbb17bd50	-0.002315361
83	0x3ea93dc5	0.3305494
84	0xbf1e2dc7	-0.617886
85	0x3eb79c88	0.3586161
86	0xbdbbcbf0	-0.09169757
87	0xbf44a74a	-0.7681776
88	0xbf35b2c0	-0.70975876
89	0x3f4c0f96	0.7971128
90	0x3ea397e6	0.31951827
91	0x3eee1584	0.4650079
92	0x3ef6ee04	0.48228467
93	0x3f9b5f9e	1.2138555
94	0xbc258f51	-0.01010497
95	0xbddc7e88	-0.107663214
96	0xbf338aa6	-0.70133436
97	0x3e32bf38	0.17455757
98	0x3e80f9af	0.25190493
99	0xbf06d39c	-0.5266664

layers.4.bias f4 [10]
0	0x3e375b8d	0.17906018
1	0x3e762883	0.24038891
2	0x3eb6255b	0.35575375
3	0x3dcc4677	0.099743776
4	0xbe0769ad	-0.13223906
5	0xbc67b3ce	-0.01414199
6	0xbea28be0	-0.3174734
7	0xbcde044e	-0.027101662
8	0xbaf758fb	-0.0018871123
9	0xbd77fec5	-0.0605457

layers.5.weight f4 [1, 10]
0	0x3ebec028	0.3725598
1	0xbc71a066	-0.014747715
2	0x3e1462c8	0.14490807
3	0xbf09be14	-0.5380566
4	0xbf5741a8	-0.8408456
5	0xbee6019f	-0.44923112
6	0xbed1c8e9	-0.40973595
7	0x3ea4e860	0.32208538
8	0x3dd4308e	0.103608236
9	0x3dfe1ff0	0.12408435
