01_pure_bend_rand/CPU/net_v_20240704_123106.pth (torch, 5441 bytes, 11 tensors)

layers.0.weight f4 [10, 2]
-1.0658178 -0.702487 0.07933088 0.37325075 0.9696189 0.62179184 0.72154564 1.9061172
-0.23902415 2.1864054 -1.3376832 0.38331842 -0.017708786 2.1516426 0.5674412 -1.0229701
0.45515987 -3.0724285 -0.0042505814 0.4133545
00000000: b86c 88bf 30d6 33bf 3a78 a23d b91a bf3e
00000010: f238 783f c02d 1f3f 37b7 383f a6fb f33f
00000020: bfc2 74be 11ee 0b40 3439 abbf 5042 c43e
00000030: 0412 91bc 83b4 0940 d443 113f aff0 82bf
00000040: b70a e93e aba2 44c0 7648 8bbb 33a3 d33e

layers.0.bias f4 [10]
0.42259145 -0.074694306 0.4448534 -0.9097979 -0.6914391 0.20853366 -0.5831904 -0.9730662
0.69075054 -0.46244392
00000000: e85d d83e 54f9 98bd d3c3 e33e 84e8 68bf
00000010: 2702 31bf d989 553e f74b 15bf de1a 79bf
00000020: 07d5 303f 73c5 ecbe

layers.1.weight f4 [10, 10]
-0.11372057 0.07580946 0.9366131 0.5105118 0.107394114 -0.5973559 -0.7052422 -1.1115133
-0.8246468 -0.28482568 0.48960087 -0.091304176 0.49409103 0.11593499 0.16586493 0.009345587
0.06324108 1.0500942 -0.8645728 0.6515982 0.5303063 0.7052037 0.77199495 -0.6254855
0.21723983 0.36477864 0.26873377 -0.747156 0.2792493 0.6905538 0.29081833 -0.09718022
0.6915464 0.014721749 0.80496246 -0.085713655 0.3282861 -0.0677116 0.9036748 -0.39630243
-0.12021788 -0.40305758 -0.5366209 0.25652623 -0.13491656 0.48618925 -0.09997085 0.16244763
-0.079060175 -0.31704414 0.2745028 -0.04944198 -0.34270722 0.30214575 0.8153463 0.5862979
0.49872229 0.15366802 0.18730891 0.3698562 0.19313525 -0.25183696 -0.95681745 0.003729117
-0.17972684 0.016518943 0.9582581 0.26284486 0.16804554 1.1294501 0.5267808 -0.2555587
1.3928713 -0.2852013 -1.1771033 -0.52917 -0.46663934 -0.40513334 -0.05293253 -0.4941909
0.35962966 -0.13934103 0.49170527 0.42656514 -0.023339082 0.1546929 0.76052725 -0.29992884
-0.063146025 -0.10237897 0.007868267 0.068387985 -0.8760687 0.13876735 -0.82544637 -0.65355814
0.27395374 0.11323603 -0.7967369 -0.46467707
00000000: 55e6 e8bd fd41 9b3d e0c5 6f3f e7b0 023f
00000010: 72f1 db3d 51ec 18bf c18a 34bf 1146 8ebf
00000020: 0d1c 53bf acd4 91be f7ac fa3e affd babd
00000030: 80f9 fc3e 536f ed3d 7fd8 293e 3c1e 193c
00000040: 8a84 813d 7d69 863f a554 5dbf 24cf 263f
00000050: 27c2 073f 3b88 343f 76a1 453f d11f 20bf
00000060: 1e74 5e3e 44c4 ba3e 7997 893e 9e45 3fbf
00000070: c4f9 8e3e 22c8 303f 24e6 943e 6c06 c7bd
00000080: 2f09 313f 7e33 713c 0512 4e3f a48a afbd
00000090: 1e15 a83e 61ac 8abd 3b57 673f 27e8 cabe
000000a0: cb34 f6bd 905d cebe fd5f 09bf 6857 833e
000000b0: 9127 0abe cced f83e 84bd ccbd ac58 263e
000000c0: 4dea a1bd 9c53 a2be a28b 8c3e ac83 4abd
000000d0: 5277 afbe d9b2 9a3e 89ba 503f 9f17 163f
000000e0: 8758 ff3e 265b 1d3e e8cd 3f3e cb5d bd3e
000000f0: 3fc5 453e c6f0 80be fdf1 74bf 3464 743b
00000100: 500a 38be bc52 873c 6750 753f 9a93 863e
00000110: 2114 2c3e d291 903f 1bdb 063f 97d8 82be
00000120: 9b49 b23f e805 92be 52ab 96bf af77 07bf
00000130: 5aeb eebe a36d cfbe c8cf 58bd 9706 fdbe
00000140: 6121 b83e 6aaf 0ebe cbc0 fb3e bf66 da3e
00000150: 9a31 bfbc d167 1e3e eab1 423f 4690 99be
00000160: b452 81bd 11ac d1bd e7e9 003c 000f 8c3d
00000170: 0a46 60bf 0719 0e3e 7450 53bf 964f 27bf
00000180: aa43 8c3e 4be8 e73d f3f6 4bbf 27ea edbe

layers.1.bias f4 [10]
-0.22394012 -0.45182976 0.22677884 0.058950927 0.34904593 -0.18106215 -0.22587587 -0.09027928
0.08808171 0.12743574
00000000: 8f50 65be 3b56 e7be b638 683e 8776 713d
00000010: 26b6 b23e 5b68 39be 014c 67be 58e4 b8bd
00000020: 2f64 b43d 847e 023e

layers.2.weight f4 [10, 10]
-0.23495221 -0.40869343 -0.21772587 -0.5269603 -0.2120754 -0.51172316 -0.67193896 0.8058574
0.38756576 -0.3015688 0.115001805 0.13169463 -0.12321008 0.12456256 -0.065337904 -0.5458798
-0.31143916 -0.33129352 0.2451641 -0.039989345 -0.7744397 0.38280314 0.28159 -0.21118738
0.53031164 0.30939955 0.665761 -0.54281056 0.029760696 -0.10059897 0.95969456 0.9819928
-0.17518996 -0.16822608 -0.86599374 0.76145464 0.2775086 0.6116035 -0.166214 0.6932827
-0.059564218 -0.5405978 -1.1427068 0.062238634 -0.12760778 0.17391513 0.78719723 0.52960455
0.024259742 0.14101319 -0.67314667 0.60611117 -0.7054924 -0.11627156 -0.35417277 0.0037468537
0.016956216 -0.032125935 -0.59470147 -0.23914278 -0.16202964 -0.69599694 -0.8229649 0.603008
-0.391959 0.627398 0.93157333 -0.5270419 1.24801 0.14838709 0.19583903 1.0107595
0.182526 -0.24498034 0.1653811 0.046095785 0.46898994 -1.0964134 0.16565652 -0.53107685
-0.6053749 1.0022389 -0.3172146 0.4103979 -0.10351486 -0.058631152 0.7473848 -0.15714645
-1.123421 0.7370427 0.36296335 -0.73668224 -0.43554804 -0.1243893 -0.057096615 -0.11720303
0.01894165 -0.89189595 -0.12234174 0.09594812
00000000: 5097 70be 4440 d1be 88f3 5ebe dfe6 06bf
00000010: 4b2a 59be 4a00 03bf 3104 2cbf ac4c 4e3f
00000020: 056f c63e 3a67 9abe 1186 eb3d f5da 063e
00000030: 9155 fcbd a81a ff3d e1cf 85bd c7be 0bbf
00000040: f474 9fbe 4e9f a9be 4c0c 7b3e decb 23bd
00000050: ae41 46bf c6fe c33e 912c 903e 8141 58be
00000060: 81c2 073f 9e69 9e3e 506f 2a3f a2f5 0abf
00000070: b4cc f33c d506 cebd 8bae 753f e163 7b3f
00000080: ff64 33be 7543 2cbe c4b1 5dbf b1ee 423f
00000090: 9b15 8e3e 0c92 1c3f 0134 2abe fa7a 313f
000000a0: 9cf9 73bd 9e64 0abf 3744 92bf f0ed 7e3d
000000b0: 9dab 02be cf16 323e c285 493f 2a94 073f
000000c0: 5ebc c63c c365 103e 5753 2cbf 1a2a 1b3f
000000d0: 269b 34bf c91f eebd 2256 b5be c68d 753b
000000e0: c3e7 8a3c 7c96 03bd 5b3e 18bf d8e1 74be
000000f0: 19eb 25be db2c 32bf d4ad 52bf bb5e 1a3f
00000100: daae c8be 289d 203f 977b 6e3f 38ec 06bf
00000110: cbbe 9f3f c9f2 173e 078a 483e 9160 813f
00000120: 19e8 3a3e 20dc 7abe aa59 293e efce 3c3d
00000130: 731f f03e 4657 8cbf dda1 293e a7f4 07bf
00000140: d9f9 1abf 5d49 803f f469 a2be ac1f d23e
00000150: 99ff d3bd 3827 70bd 9c54 3f3f 00eb 20be
00000160: 42cc 8fbf d5ae 3c3f 55d6 b93e 3597 3cbf
00000170: 2700 dfbe d1bf febd 24de 69bd 2408 f0bd
00000180: 852b 9b3c 4b53 64bf 4e8e fabd 7380 c43d

layers.2.bias f4 [10]
0.19138749 0.15909816 0.023430113 -0.12417538 -0.1334714 -0.20756489 -0.17501777 -0.2599775
-0.0874431 0.27546096
00000000: 15fb 433e a1ea 223e 82f0 bf3c a94f febd
00000010: baac 08be e48b 54be dc37 33be c51b 85be
00000020: 5e15 b3bd 3809 8d3e

layers.3.weight f4 [10, 10]
-0.94967985 0.77587545 0.3767183 0.581693 0.41182283 -0.46288276 -0.46633208 -0.10142417
-0.6258547 0.12215284 -0.059535373 0.26836443 0.058727477 -0.00016099644 -0.3180932 -0.043930586
0.5290413 -0.23825052 0.33951053 0.6079853 0.48590356 -0.2038429 -0.29351792 -0.79200476
0.38093713 0.267471 -0.43189293 -0.9746167 -0.8070276 0.65938896 -0.10849905 -0.25709146
0.006120059 -0.8712523 0.48487973 -0.050418228 -0.0037821287 0.13163896 0.44509438 0.510677
0.25469688 -0.2791644 -0.36672536 0.14872472 0.040450506 0.38125467 0.49857104 0.9903327
1.3101444 -0.29724902 0.092517 0.67397904 -0.7825055 -0.26696676 -0.8489775 -0.28299025
-0.36312446 0.6166485 -0.8455392 0.12741727 -0.23005253 0.3064703 -0.47082955 0.59218335
-0.16634318 0.49108043 -0.72624236 -0.031933226 -0.42932725 0.1517597 -0.78597295 0.7241246
1.2151093 0.478507 1.260671 0.4838852 -0.18642943 -0.44931334 0.72995913 0.36921394
-0.78060126 1.3116337 0.020472202 -0.4059411 -0.42825708 0.047783725 -0.05977153 0.6120626
0.012052814 -0.40278384 0.124051824 0.15323603 0.32547912 0.32048157 0.17689733 -0.033827122
0.10660107 -0.11800783 0.8485124 0.87362653
00000000: 381e 73bf c69f 463f 39e1 c03e d5e9 143f
00000010: 71da d23e f8fe ecbe 14c3 eebe 7ab7 cfbd
00000020: 0338 20bf 452b fa3d 5ddb 73bd 1067 893e
00000030: 398c 703d 27d1 28b9 1ddd a2be 8ff0 33bd
00000040: 406f 073f f2f7 73be 53d4 ad3e eda4 1b3f
00000050: 5ac8 f83e 31bc 50be fb47 96be d3c0 4abf
00000060: 310a c33e f5f1 883e 1221 ddbe 7b80 79bf
00000070: 5c99 4ebf b7cd 283f c034 debd 7ea1 83be
00000080: c78a c83b 640a 5fbf 2842 f83e 5883 4ebd
00000090: 97dd 77bb 5dcc 063e 69e3 e33e babb 023f
000000a0: a167 823e a3ee 8ebe 6dc3 bbbe 4b4b 183e
000000b0: 6eaf 253d d033 c33e b444 ff3e 7286 7d3f
000000c0: d0b2 a73f 0631 98be 8e79 bd3d e489 2c3f
000000d0: 4852 48bf deaf 88be 9756 59bf 19e4 90be
000000e0: 73eb b9be addc 1d3f 4275 58bf ac79 023e
000000f0: e492 6bbe ade9 9c3e 9210 f1be 5499 173f
00000100: de55 2abe e56e fb3e 05eb 39bf 6acc 02bd
00000110: c8d0 dbbe e566 1b3e 8635 49bf 3b60 393f
00000120: b488 9b3f dffe f43e ab5d a13f cdbf f73e
00000130: 5be7 3ebe 660c e6be 9ade 3a3f 9c09 bd3e
00000140: 7cd5 47bf 9de3 a73f 52b5 a73c 83d7 cfbe
00000150: 8344 dbbe deb8 433d fed2 74bd 22b0 1c3f
00000160: 2a79 453c af39 cebe e20e fe3d e8e9 1c3e
00000170: 33a5 a63e 2916 a43e 9324 353e 4f8e 0abd
00000180: a951 da3d 17ae f1bd 1c38 593f fda5 5f3f

layers.3.bias f4 [10]
-0.18690446 -0.14875458 -0.2687658 -0.06273399 0.13369162 -0.28363198 0.12636879 0.0130260335
0.025965946 0.01643526
00000000: e263 3fbe 1f53 18be ac9b 89be ae7a 80bd
00000010: 75e6 083e 3638 91be d266 013e 256b 553c
00000020: 89b6 d43c 3da3 863c

layers.4.weight f4 [10, 10]
-0.9720384 -0.6262948 -0.8017327 -0.22715855 -0.07503526 0.27911574 0.5550635 0.039384596
0.36538547 -0.084560595 -0.14378917 -0.67636997 0.29768163 0.2975587 0.19406354 0.27745745
-0.48068333 -0.58173615 -0.5957468 0.36241844 -0.41448674 0.9053094 0.15295646 -0.6608923
0.71378934 -0.34121928 0.06025077 0.2100489 0.092619784 -0.03978797 0.3232607 -0.22672544
0.5662184 0.21304075 0.35125569 0.59437364 0.07641868 0.17917792 0.11489052 -0.46849284
0.59791946 0.52066654 0.006440494 0.48829296 0.13016541 0.26418394 0.14043619 -0.038566895
0.46055216 -0.006670796 0.14654103 -0.668911 -0.27963603 -0.8175806 0.77303976 -0.37701902
-0.044180546 -0.43552402 0.25816533 -0.010334513 0.45182097 0.09721066 -0.17765768 0.045824602
-0.72423524 -0.40711376 0.1036101 -0.45010912 -0.62096256 0.31696552 -0.17960256 0.53533316
-0.30353424 0.08084576 -0.38303843 0.21610466 -0.15186884 -0.10709841 0.15837654 -0.48711726
-0.8964139 0.053115 -0.1641931 -0.3334364 0.45360786 0.37275282 -0.34363267 0.48253483
0.014626358 1.1215363 -0.24917819 0.3900685 -0.30153072 -0.34268925 0.2022772 -0.32287353
0.49899718 0.079775795 -0.6174259 -0.7293474
00000000: 82d7 78bf db54 20bf 5b3e 4dbf 409c 68be
00000010: 16ac 99bd 42e8 8e3e a418 0e3f be51 213d
00000020: ce13 bb3e 1b2e adbd 783d 13be 9526 2dbf
00000030: ba69 983e 9d59 983e 98b8 463e e70e 8e3e
00000040: 201c f6be a9ec 14bf dd82 18bf e98e b93e
00000050: 9b37 d4be 5bc2 673f 9ea0 1c3e 3d30 29bf
00000060: e6ba 363f 4bb4 aebe 83c9 763d 0f17 573e
00000070: 71af bd3d b6f8 22bd 6d82 a53e b72a 68be
00000080: b0f3 103f 5b27 5a3e c9d7 b33e df28 183f
00000090: 6681 9c3d 6b7a 373e b94b eb3d 4bde efbe
000000a0: 4011 193f 674a 053f c80a d33b 8901 fa3e
000000b0: 154a 053e 1e43 873e 81ce 0f3e 52f8 1dbd
000000c0: 7ecd eb3e b196 dabb da0e 163e c03d 2bbf
000000d0: 742c 8fbe f64c 51bf efe5 453f a308 c1be
000000e0: a9f6 34bd 01fd debe 3f2e 843e 1752 29bc
000000f0: 1455 e73e 6216 c73d e5eb 35be 94b2 3b3d
00000100: 7b67 39bf 3771 d0be 8831 d43d b474 e6be
00000110: 67f7 1ebf 4e49 a23e bce9 37be 980b 093f
00000120: d768 9bbe 7692 a53d 9d1d c4be 8a4a 5d3e
00000130: 8183 1bbe 6956 dbbd 762d 223e 6f67 f9be
00000140: 627b 65bf 1d8f 593d 3c22 28be 2db8 aabe
00000150: 4a3f e83e 75d9 be3e 9ff0 afbe ce0e f73e
00000160: 64a3 6f3c 808e 8f3f 9128 7fbe 0fb7 c73e
00000170: 3c62 9abe f774 afbe c121 4f3e ae4f a5be
00000180: 8f7c ff3e 7e61 a33d a00f 1ebf 83b6 3abf

layers.4.bias f4 [10]
0.010912667 -0.11235493 0.10123769 0.067919046 0.038901433 -0.01417281 -0.0832644 0.104057916
-0.23851207 -0.22807507
00000000: 0bcb 323c 571a e6bd b555 cf3d 2419 8b3d
00000010: 1c57 1f3d 1335 68bc 8786 aabd 511c d53d
00000020: 823c 74be 838c 69be

layers.5.weight f4 [1, 10]
0.39049247 -0.37979323 0.1925268 -0.2801498 0.065989174 -0.1410644 -0.59575415 0.20720412
-0.08658035 0.4199595
00000000: a1ee c73e 4274 c2be bf25 453e cb6f 8fbe
00000010: 5525 873d 3073 10be 5883 18bf 512d 543e
00000020: 0a51 b1bd ee04 d73e
