01_pure_bend_rand/CPU/net_v_20240703_181602.pth (torch, 6223 bytes, 7 tensors)

layers.0.weight f4 [20, 2]
000000 9e 50 09 c0 a8 0f 20 bf 0e 89 b1 be 38 59 28 3d
       -2.1455455 -0.6252389 -0.34674877 0.04110071
000010 b6 16 b7 3e 52 7a 54 40 d1 be 71 bf 2e 50 6b bf
       0.35759515 3.3199658 -0.9443179 -0.9191922
000020 66 06 db 3d ed d4 bb be 75 70 20 40 51 b8 bb 3f
       0.1069458 -0.36685887 2.5068638 1.4665624
000030 5f 2c 4e 3f 56 c8 08 bf 01 4a fb 3f ad 72 ba 3e
       0.80536455 -0.5343069 1.9631959 0.36415616
000040 24 b5 c5 bf c2 a2 22 3e 34 43 74 bf ec 7b 37 bf
       -1.5445905 0.158824 -0.95415044 -0.71673465
000050 72 bb 35 3f 76 49 e3 be 81 00 0c 40 8c 9b 0b 3f
       0.70989144 -0.44391984 2.1875308 0.5453422
000060 7d 52 a3 3e 0b d1 2f 3f ba 8c d9 3e cc 82 87 3f
       0.3189887 0.6867835 0.42490178 1.0586791
000070 f9 a1 58 3e bc 01 10 40 e7 86 10 c0 5f f0 07 3e
       0.21155538 2.2501059 -2.2582338 0.13275288
000080 06 db 79 bd aa b6 9f 3f e4 29 f5 be ce 8c 86 3f
       -0.060999893 1.247762 -0.47883523 1.051172
000090 f9 e8 a2 3f 9f 41 48 3f dd 29 2c 40 4a 80 b6 3e
       1.2727348 0.7822513 2.6900551 0.35644752

layers.0.bias f4 [20]
000000 ec ca f4 be e5 e8 22 3f 82 cb 37 3f 6a e9 08 3f
       -0.47811067 0.6363662 0.71794903 0.5348116
000010 4f c4 c5 be ce 25 08 3f 23 55 20 3f fc 82 da 3e
       -0.38626334 0.53182685 0.6262991 0.42678058
000020 93 7e 37 bf ff a5 08 bf d9 19 52 be ac bc 0c bf
       -0.7167751 -0.5337829 -0.20517673 -0.5497539
000030 60 aa 17 3f ea 6b a0 bd a3 a2 78 3f 1d e6 aa be
       0.59244347 -0.07833083 0.97123164 -0.33378688
000040 90 53 d6 be 7f 93 89 3e b0 c0 dc 3e 0e 8d c6 3e
       -0.41860628 0.26870343 0.4311576 0.3877949

layers.1.weight f4 [20, 20]
000000 6e 4c 37 3e 55 7d 2a 3e 6d 33 6b 3e b5 43 e8 bd
       0.1790025 0.16649373 0.22968836 -0.11341039
000010 d3 47 8e be a8 d9 ff 3e a3 79 48 3f 43 8f 61 3e
       -0.27789173 0.49970746 0.783106 0.22027306
000020 c7 37 2c be 5e 22 4f bf a6 f1 36 bf c2 da 14 bc
       -0.16818152 -0.80911815 -0.71462476 -0.009085359
000030 f2 a8 60 3f 28 ff 9d be 66 25 68 3f 15 91 f8 3d
       0.8775779 -0.3085873 0.90682065 0.12137047
000040 08 20 b1 be ee e5 85 be c4 a4 19 bf 15 d4 df 3e
       -0.3459475 -0.26151985 -0.6001704 0.43716493
000050 bc 75 7c be 7a f6 32 bf 3c 78 6b 3e 30 5b a3 3d
       -0.24654287 -0.69907343 0.22995085 0.07976377
000060 a1 f8 2d 3e 9f 1d 85 be 15 26 91 be a1 55 87 3e
       0.16989376 -0.25999162 -0.28349367 0.26432517
000070 36 e2 7b 3e c1 50 8c 3c 05 79 2d bf 86 c0 ab be
       0.24598011 0.01712835 -0.67762786 -0.3354532
000080 d2 02 12 bf 2f ec b2 3d f7 65 0b bd bf dc 01 be
       -0.57035553 0.08736455 -0.034032788 -0.12681864
000090 d0 ad 22 3d 64 1a a0 3e 3c 00 dc bd fe 57 b7 3e
       0.03971654 0.31270134 -0.10742232 0.3580932
0000a0 f3 fb 1f bf 52 da be be 14 9b 6d be cd 39 ca 3e
       -0.6249382 -0.3727594 -0.23203689 0.39497223
0000b0 66 f5 27 3e ba 29 05 3f b4 f8 c3 3d 20 a8 1c 3d
       0.16402206 0.52016795 0.09568921 0.038246274
0000c0 8c 53 15 be f7 b9 92 be c9 05 ad 3e 97 bc b6 be
       -0.14582652 -0.28657505 0.33793476 -0.35690758
0000d0 f3 28 fa be 5b 23 00 bf 3f 78 37 3f 7b 47 22 3e
       -0.48859367 -0.5005395 0.71667856 0.1584758
0000e0 01 b0 13 be 0a 48 cd 3d dd 38 0a 3f e2 28 8e bd
       -0.14422609 0.10023506 0.53993016 -0.069413915
0000f0 6d b5 7d 3d 62 34 92 3e 39 32 7a be fd c0 d1 3e
       0.0619406 0.2855559 -0.24433221 0.4096755
000100 0d f2 d8 3d bc 5c ce 3d 90 f3 93 be 65 1a 8b 3d
       0.105930425 0.100762814 -0.2889676 0.06792144
000110 b4 97 c2 3c 67 7b 85 be 42 84 df be 62 80 3b bf
       0.023753978 -0.2607071 -0.43655592 -0.7324277
000120 f2 c4 cb bd 19 35 cf 3e 3e 84 6a 3d 3b ee 82 3e
       -0.09949674 0.40470198 0.057255022 0.2557238
000130 59 19 14 3f e6 7f 6f 3e fa e3 56 3e 8a 52 9f 3e
       0.5785118 0.23388633 0.20985404 0.3111766
000140 64 90 79 3e 1c 61 30 bd d4 b6 fd 3e a7 6b f3 bd
       0.24371487 -0.04306136 0.4955355 -0.118857674
000150 fb 8b 9e 3e 34 1a 11 bc 1e 60 f3 bd 45 5d fd be
       0.30966172 -0.008856345 -0.11883567 -0.49485222
000160 45 5f 47 be 21 87 fa be 96 51 0b 3e 71 5d a4 be
       -0.19469936 -0.4893122 0.13605341 -0.3210254
000170 be c7 67 bd 67 0d b0 bf b0 e4 ac 3b 00 1f 12 be
       -0.056586973 -1.375409 0.005276285 -0.14269638
000180 64 cb 04 3e 75 64 16 3d 27 d5 bf 3e 92 5c 56 bc
       0.12968212 0.036716897 0.3746731 -0.013083594
000190 7e 58 a5 3e 9b 38 d8 3e e4 9e 41 bf e9 e4 19 be
       0.32294077 0.42230687 -0.7563307 -0.15028729
0001a0 6a c9 41 3f d3 43 91 3b ca 35 f7 3d e0 8a c2 be
       0.7569796 0.004433134 0.12070806 -0.37996578
0001b0 c1 0a 36 3e 65 b1 44 be 24 54 77 be 85 de c4 3e
       0.1777754 -0.19208296 -0.24153191 0.3845102
0001c0 4d 50 c4 be d3 37 dd be 4c cb 11 3e cc 46 ee b9
       -0.38342515 -0.43206653 0.14237708 -0.00045447645
0001d0 4b c9 23 3e 86 e7 ea be 98 ce a0 be da 01 56 3f
       0.15994756 -0.45879763 -0.3140762 0.83596575
0001e0 da 25 7e 3d 10 c3 63 be 69 a1 55 bd 20 dc 94 bd
       0.062047817 -0.22242379 -0.052155886 -0.07268548
0001f0 9f fb db be 0a d8 29 bf dc e8 de be 15 26 d3 bd
       -0.4296541 -0.66345274 -0.43537033 -0.10309998
000200 ad dc 3c be 9a 4f 1e 3f d9 e6 31 3f 7a 5a 49 bc
       -0.18443556 0.6184021 0.6949287 -0.012289638
000210 c3 c8 75 3d 24 34 53 3d 6f 3a 99 3e 0c b6 5a 3e
       0.060005914 0.051563397 0.29927394 0.21358508
000220 e2 53 12 bf da 6e fc be 5f ce 0b 3f 19 44 6c be
       -0.57159245 -0.49303323 0.5461177 -0.23072852
000230 2d bd 06 3e 21 42 7a 3e 56 09 b1 3d 0a b9 9b 3e
       0.13158102 0.24439289 0.08644359 0.3041461
000240 85 53 96 3d 05 99 aa 3d 52 9f 5a be 3e 69 8a be
       0.07340149 0.083299674 -0.21349838 -0.27033418
000250 fc 05 17 3f 37 bd 13 3f fb 92 ba 3e f3 6c 1e 3f
       0.58993506 0.57710594 0.36440262 0.61884993
000260 6f 3a 3c be fe 1f 7f 3f b3 92 02 bf 69 0a 2f 3e
       -0.18381666 0.9965819 -0.51005095 0.17093815
000270 07 e9 4f 3d 77 11 ec be 9e e0 0b bf ca cc 6f 3e
       0.05075934 -0.46107075 -0.54639614 0.23417965
000280 12 a9 15 be aa 71 a4 3e 1f a2 b2 bd 48 5f 8e 3e
       -0.14615276 0.3211797 -0.087223284 0.2780707
000290 2d b7 64 be 1d c7 39 3e 3a 45 2c be ab 57 15 3e
       -0.22335501 0.18142362 -0.16823283 0.14584224
0002a0 7b e5 29 3e 0b a4 2f bd de c3 26 3f d1 b7 83 3e
       0.16591446 -0.042881053 0.6514262 0.25726178
0002b0 ca 15 e1 3d 9e 91 94 be c9 18 1a 3e a4 2b 35 be
       0.10990484 -0.29017347 0.15048517 -0.17692429
0002c0 5a 56 51 3e ba aa d0 3e 46 10 71 be bc 8e 6c bd
       0.20443097 0.40755254 -0.23541364 -0.05775331
0002d0 78 a7 1a be f8 8b 29 be 75 bd 05 3d d1 75 19 3f
       -0.15102947 -0.165573 0.032651383 0.599454
0002e0 29 f2 02 bd c6 a2 37 be d9 91 d7 3d bf 19 a4 3e
       -0.031969223 -0.17933187 0.10525865 0.32050893
0002f0 5c 79 c9 3e 28 2d 7f bc 9b 4f 9b 3e 01 db dd 3d
       0.39350402 -0.015574731 0.30334172 0.10832787
000300 89 96 bc be 2e c2 d2 be 3a 10 e8 be 85 e0 36 3f
       -0.368336 -0.41163772 -0.4532488 0.7143634
000310 b8 33 27 3f af b0 5c 3f 4e c0 db be 2c 8d c3 3e
       0.6531329 0.862071 -0.42920154 0.38193643
000320 9a 79 6b be bb 93 95 3b 3d e7 14 3f b5 d6 be 3c
       -0.22995606 0.00456473 0.5816534 0.02329574
000330 c4 a7 09 3f 62 35 ce 3d 9e 26 b3 3e 7f 08 03 bf
       0.53771615 0.10068776 0.349904 -0.5118484
000340 d6 68 d8 be 8e dd b3 3e 38 47 cb bd 1f d7 b7 be
       -0.42267483 0.3512997 -0.09925693 -0.35906312
000350 cd 8b 67 3e 40 63 36 3e 0b c9 b6 3c f2 18 16 bf
       0.22611924 0.17811298 0.022312662 -0.58631814
000360 92 dc 36 3e 2b 40 57 3e cd 02 ae bd cb 60 6b be
       0.17857578 0.21020572 -0.08496628 -0.22986142
000370 1f 16 5e 3e 47 53 0b bf 90 6f 65 be 5e 27 99 3e
       0.21688126 -0.54423946 -0.22405839 0.29912847
000380 3a 87 3b bd 40 35 b6 3e 68 41 a9 3e e4 08 87 be
       -0.04578326 0.35587502 0.33057714 -0.2637397
000390 0a bb 23 bf 34 e8 6e 3d 06 52 a0 be 32 95 64 bf
       -0.63957274 0.058326915 -0.3131258 -0.89290154
0003a0 20 1c 15 3f 0d 7f 00 3f b1 2a 93 3c 9f c3 94 be
       0.5824604 0.50193864 0.017964693 -0.29055497
0003b0 38 f1 60 bc a8 b2 a4 3e 1a 0d bc be e0 5e 3a 3e
       -0.013729386 0.32167554 -0.36728746 0.18200254
0003c0 77 d2 f6 3d 31 75 66 bf e9 97 a1 3d 01 a5 fd 3e
       0.12051862 -0.9002257 0.07890303 0.4953995
0003d0 5e cd 35 be e3 c1 69 bb 06 eb 8a 3f a8 d9 0e 3e
       -0.17754123 -0.0035668544 1.0852973 0.13950217
0003e0 82 1b c8 be d1 82 bc 3e 6a 3f 45 be b4 6c a6 3e
       -0.39083487 0.36818555 -0.19262472 0.3250481
0003f0 c8 f5 68 bf fa 0b 09 3c f9 c3 81 3e c5 e6 07 be
       -0.9100003 0.008364672 0.25344828 -0.13271625

layers.1.bias f4 [20]
000000 9e 73 03 bd 62 af a9 be 41 6d a6 3e 82 37 02 3e
       -0.032092683 -0.3314162 0.3250523 0.12716487
000010 f9 4c 18 bc 96 50 69 bc 8c 82 11 3e 0d 30 79 be
       -0.009295695 -0.014240405 0.14209956 -0.24334736
000020 5b 2f 99 3e 78 90 ae be 81 29 d5 3d 9d f4 27 bd
       0.29918942 -0.34094596 0.10408307 -0.041004766
000030 16 4e 4e 3d 37 ab a0 3d 14 0f ce bd 03 55 05 be
       0.050367437 0.07845157 -0.1006147 -0.1302071
000040 5c b2 56 be 54 1a ff 3c 91 d9 3a bd 8f 67 8f 3d
       -0.20966476 0.031140484 -0.045617644 0.07002174

layers.2.weight f4 [20, 20]
000000 30 23 36 bf af e5 80 be 37 92 27 3e a6 bd 03 bd
       -0.7114744 -0.25175235 0.1636437 -0.032163285
000010 9d f5 ab 3e 6b 04 5c 3e c4 f0 c6 be 22 d3 11 3f
       0.33585826 0.2148606 -0.38855565 0.5696279
000020 b7 c3 37 bf b4 86 85 3f 05 7c 57 be 0f cb 21 3e
       -0.7178301 1.0431733 -0.21043403 0.15800117
000030 5b e8 3e 3d e0 9d 35 bf 19 50 c4 be b2 11 59 3d
       0.04660831 -0.70944023 -0.3834236 0.05299539
000040 1a 15 45 3e a5 c1 03 3f 6c 68 13 3e b1 f3 dd 3e
       0.19246331 0.51467353 0.14395303 0.43349984
000050 fb 3f be 3e d9 2d 56 bf 57 2e ee bd 4c 6a fc 3e
       0.37158188 -0.8366371 -0.116299324 0.49299848
000060 45 eb cf be 4d ed 1d 3f 29 3a c0 3e 77 06 a0 be
       -0.40609184 0.6169022 0.37544373 -0.31254932
000070 d9 af a1 bb dc 2c 2e bf 76 dd 0a bf 66 6d 3b 3f
       -0.0049342928 -0.680372 -0.5424417 0.73213804
000080 f3 f6 c8 3d 76 f3 68 bd fd ed 29 3e 55 4b 26 bf
       0.09812727 -0.056872807 0.16594692 -0.649587
000090 8e c7 1e bf 9f 21 5f be 4c 21 13 3e ef 38 fa 3e
       -0.62023246 -0.21790169 0.1436817 0.48871562
0000a0 e9 ca 7b be ff 5e 49 3f 43 41 c4 3e 29 75 3d be
       -0.24589123 0.7866058 0.3833104 -0.18501724
0000b0 22 bd c6 be d3 50 f9 3d 0b fa 0b bf 01 01 b1 be
       -0.38816172 0.12173619 -0.5467841 -0.34571078
0000c0 1e cd 4b be 7e f3 d8 3e 5f 9d 15 be 5e e5 52 3d
       -0.19902465 0.4237327 -0.14610814 0.051488273
0000d0 da 37 e2 bd cf 0c 92 3e 47 d2 cb 3c 9c a0 b0 3e
       -0.11045809 0.28525397 0.024880541 0.34497535
0000e0 2d da 95 3e 75 ff 16 bf 42 72 bd be 7c 6d c9 be
       0.29268017 -0.58983546 -0.37001234 -0.39341342
0000f0 db 4b 01 bf 7e 51 13 3f 3e 50 59 be 82 18 95 3e
       -0.5050637 0.5754622 -0.21222016 0.2912026
000100 64 b6 b1 be 4a 68 f7 be 8f d2 f7 be 65 b9 3e 3c
       -0.34709466 -0.48321754 -0.4840283 0.011640881
000110 7a 15 bc 3e b8 94 ee 3e 52 ed 45 3e 41 d4 c7 be
       0.36735135 0.46597838 0.19328812 -0.39029124
000120 70 52 05 be 2d 7a 4c 3c d4 f8 1b 3e 50 ad 87 3d
       -0.13019729 0.012480301 0.15231639 0.066248536
000130 d9 1c d2 be d9 eb 1e be 81 d2 99 3e 4c 97 ad bf
       -0.41037634 -0.15519656 0.30043414 -1.3561797
000140 c1 08 a4 3e 83 57 a1 3d 96 e8 57 bf cd fd 38 3c
       0.3203793 0.0787802 -0.8433927 0.01129098
000150 6f 04 c6 bd 31 59 3c be e7 2f 75 be 15 df 7d 3e
       -0.096688144 -0.18393399 -0.23944055 0.2479213
000160 a8 9d e4 3e 10 32 73 3e ce 15 41 be 80 58 a1 3d
       0.44651532 0.23749566 -0.18855974 0.07878208
000170 f9 97 a8 3d df b2 ba 3e 01 d7 8c be 08 6b 84 3e
       0.082321115 0.36464593 -0.27507785 0.25862908
000180 5c ec 64 be 46 e0 0e 3c 3a 08 dc be b5 4f a3 3e
       -0.22355789 0.008720463 -0.42975026 0.3189675
000190 3f 47 a5 3e 40 88 3d be 55 b3 c6 be 48 ce 88 3e
       0.3228092 -0.18509007 -0.38808694 0.2671988
0001a0 a9 06 22 bf 0e 3b 90 bd 3d d0 46 3e 5d 97 48 3e
       -0.6329141 -0.07042514 0.19415374 0.1958899
0001b0 29 00 ba be 37 f6 cb 3e 55 47 13 be 5d b5 5b be
       -0.36328247 0.39836285 -0.1438268 -0.21455903
0001c0 30 1e 01 be b0 8a a4 be 8d 49 b8 3d 4d 83 02 3f
       -0.12609172 -0.3213706 0.08998404 0.509816
0001d0 f5 2e 75 be a9 5c 4d bd c9 df e7 3c 7c 3f 9c be
       -0.23943694 -0.050137196 0.028304951 -0.30517185
0001e0 27 70 48 3f 5a 32 64 3f 6c 25 82 3d a7 92 48 be
       0.7829613 0.8913933 0.06354794 -0.19587193
0001f0 63 25 aa be 9f 4a f8 3c a3 b4 fb bc ec 32 13 3e
       -0.3323165 0.03030902 -0.030725783 0.14374894
000200 11 d4 38 3e 1e ad 7f be 50 b0 0f 3f 60 ae 0e 3f
       0.18049647 -0.24968383 0.56128407 0.55734825
000210 e2 fb 19 be 68 aa 09 bf bd 9a 1c 3f 46 26 0c be
       -0.15037492 -0.53775644 0.6117361 -0.13686475
000220 25 0f 41 3e 48 ab 28 be 62 54 60 3e 4b 1c 50 be
       0.18853433 -0.16471589 0.2190719 -0.20323293
000230 d5 6f 71 be 6a db de bd 33 fc f4 be 01 e4 8a bf
       -0.23577817 -0.10881694 -0.47848663 -1.0850831
000240 e1 c0 57 bd d1 64 8f 3e 8d 02 9a be a8 22 b5 3e
       -0.052674178 0.28006604 -0.3008007 0.35378003
000250 fd f8 2d 3f 26 f6 94 3e cf d5 3f 3e ed 03 b0 be
       0.6795805 0.29094046 0.18733905 -0.34377995
000260 cd e9 04 be 90 d5 0c 3f d6 b1 a3 be 12 b6 24 bf
       -0.12979813 0.5501337 -0.31971616 -0.6434032
000270 1d 30 0e 3f 26 0d 76 bd 76 f3 2d be 17 dc e1 3d
       0.55542165 -0.060071133 -0.16987404 0.11028307
000280 8a 7e 36 3f 4a bb 2f 3d d8 2a e9 3e 0e 59 62 3f
       0.71286833 0.042903222 0.455405 0.88417137
000290 2a cf 24 be e3 3d b8 3e b4 ff 10 3d 98 24 9f be
       -0.16094652 0.35984716 0.035400108 -0.31082606
0002a0 04 85 dd be e3 73 46 3e 52 a1 90 be bd f3 18 3f
       -0.43265545 0.19380145 -0.28248078 0.59746915
0002b0 2e 98 af 3e ff ef 1a bf 3b b7 9c 3d b6 60 48 bf
       0.3429579 -0.60522455 0.07652136 -0.7827257
0002c0 2e 9f 59 be ec df 0d be bf f1 9f 3e 5a 96 ea 3e
       -0.21252128 -0.1385495 0.31239125 0.45817834
0002d0 de 57 89 3e 1b b0 d3 3e 42 70 b0 3c 2f 38 e1 3e
       0.2682485 0.41345295 0.021537904 0.43988177
0002e0 45 d8 b0 3e c9 6f b3 3e af a9 b3 be 85 60 23 3c
       0.3454 0.35046223 -0.35090396 0.0099717425
0002f0 45 d6 8b 3e 6e ae e1 be a7 f7 66 bd 13 2e 54 be
       0.27311912 -0.44078392 -0.056388523 -0.20720701
000300 da ea 95 3e 29 6c 51 bd c0 6a 49 3e 57 ee a2 be
       0.2928074 -0.05112854 0.19669628 -0.31822464
000310 7b 38 7c 3d c1 75 55 be 42 27 7c 3f f2 f2 06 3f
       0.0615773 -0.20845701 0.984974 0.52714455
000320 b9 7d a0 3e 40 3c 13 3f 13 e3 aa be b3 e2 eb 3d
       0.3134592 0.5751381 -0.3337637 0.11517849
000330 43 9b a2 be 94 e6 20 bd f6 08 75 bc 17 0f e7 be
       -0.3175908 -0.039282396 -0.01495575 -0.451287
000340 51 0b d9 bd e3 e1 fc be 2a 56 b7 be 81 03 9b 3d
       -0.105978616 -0.49391088 -0.35807925 0.07569028
000350 ce 97 46 3d c1 48 a3 3e cb 87 00 3f cc 52 69 be
       0.048484616 0.31891444 0.50207204 -0.22785491
000360 60 14 81 bd b7 d8 03 3f 3d 57 1b 3f f1 58 80 bd
       -0.06302714 0.51502556 0.6067999 -0.06266964
000370 35 3f b2 3e 0a 8d eb 3d a8 ca cd bd 3f 01 9b bd
       0.34813848 0.115015104 -0.10048419 -0.07568597
000380 79 19 0f bf 9b e3 89 3e 52 49 f4 3e cd 01 a8 be
       -0.55898243 0.26931462 0.4771219 -0.32813874
000390 00 41 c5 be eb 80 e1 be ff 02 df be 5f 6c 30 3e
       -0.38526154 -0.4404367 -0.43556973 0.1722884
0003a0 95 48 7b be 8e d3 af 3d d9 03 98 3e 18 59 81 bf
       -0.24539407 0.08585273 0.29690436 -1.0105314
0003b0 0f c2 6b be 12 0f 57 3f 1a 7e d1 3c 66 51 79 be
       -0.23023246 0.8400737 0.025572825 -0.24347457
0003c0 36 c7 0b bf e8 14 79 bf d1 79 55 3e 39 69 da 3d
       -0.54600847 -0.97297525 0.2084725 0.10664601
0003d0 ca e0 ba 3e f6 a3 28 be 63 33 04 bf fb aa 02 3f
       0.36499625 -0.16468796 -0.5164091 0.51042145
0003e0 fa b8 29 bf 4b 45 a5 be 05 c3 48 3d 34 2e 4d 3d
       -0.66297877 -0.3227943 0.04901411 0.05009289
0003f0 ad 45 ba be 97 b6 5f be 2f 07 3b be 76 b0 1a 3e
       -0.36381283 -0.21846996 -0.18264459 0.15106377

layers.2.bias f4 [20]
000000 9b 5f fc bd 93 18 1f 3e fb da 29 be af 08 1a 3e
       -0.12322923 0.15536718 -0.1658744 0.15042375
000010 b3 db 8e bd f1 24 eb 3d 11 cf 36 be 8a 59 81 bd
       -0.06975498 0.114816554 -0.17852427 -0.06315906
000020 f1 77 90 3d 55 4d 14 be 00 36 7f bc 30 3f 2a be
       0.07054127 -0.14482625 -0.015576839 -0.16625667
000030 23 bb c5 bc a5 eb 0f bd cf f3 66 be ba da 99 bd
       -0.024137085 -0.035136838 -0.22553943 -0.07512422
000040 3b dd fd 3d 64 7b 32 be 1f e0 5b be ee 1d 9e 3e
       0.12395712 -0.17429882 -0.21472214 0.3088221

layers.3.weight f4 [1, 20]
000000 c8 a4 74 3d b3 b9 88 be 01 02 e1 bc 42 d6 02 3e
       0.05972746 -0.26704177 -0.027466776 0.12777045
000010 7f 48 58 be 0d e2 10 bc 74 f6 1a 3d a1 a7 9a 3a
       -0.21121405 -0.008842957 0.037832692 0.0011799225
000020 a0 48 08 3e a5 3c b5 3e 1e ae c3 bd 93 95 73 3e
       0.13308954 0.3539783 -0.095546946 0.23787527
000030 03 0e 46 3e e8 dc a9 3e b2 a7 f6 3c a9 82 ce 3d
       0.19341283 0.3317635 0.03010926 0.10083515
000040 6c 0b 26 bd 47 fe 31 3e e9 d9 76 3d c1 56 32 3c
       -0.040538236 0.17382155 0.06026641 0.010884942
